ecg_model.pth (torch, 457641 bytes, 8 tensors)

conv.0.weight f4 [16, 1, 5]
00000000: ce7f 97be 8e3b 71be f6c3 8dbe dced e8be
00000010: a794 d73e ec20 a2be ac29 023e 1c0a 4fbe
00000020: b341 533e c8cd afbe 44c0 cb3e 59a4 293e
00000030: 59d6 903e fbb3 9abc dec3 593c d450 5a3e
00000040: c04f 8dbe fe9f be3e 9290 31be 5de2 aa3e
00000050: b35d 253f 61f1 983e f698 f7bd 63e4 d5be
00000060: 01c5 58be 030b 693d 68ba 2e3e 8b3d 05be
00000070: 7f37 46bd 7208 00bf f99e a13e 2814 06bf
00000080: d5d6 1fbf 959c 0abe e361 24be 9ca7 b23e
00000090: 7671 023f d3e3 91be 8606 313b 8754 e1be
000000a0: cee7 f63e 31b9 903e 8c91 45be 20e3 ba3e
000000b0: 679d dcbe c0ae c0be 13b0 5e3e 4f51 80be
000000c0: 1149 563d 0c96 abbe 74ca 8abe be86 06bf
000000d0: 3490 b5be a8a7 c2be 9736 b93e 8a34 7c3e
000000e0: 0f8b 9e3e 3420 1d3e d10d 0bbf 4299 a0be
000000f0: 0f04 473d 7617 c7be 575c f33c 3fe4 d93e
00000100: 7190 e43e 5782 823e 8542 c33e 8d2a 453e
00000110: 4169 66be db95 183e bf42 c33e 3f90 733c
00000120: 3912 ccbc 023e d53d 10f5 ab3c d28f 023f
00000130: 5c05 ef3d bc94 f13d ab7a f33e aecd 103e
-0.29589695 -0.23557875 -0.2768857 -0.45493972 0.421056 -0.31665742 0.12711209 -0.202187
0.20630531 -0.34336686 0.39795125 0.165666 0.28288534 -0.01888465 0.013291327 0.21319896
-0.27599907 0.3723144 -0.17340305 0.33375826 0.645961 0.29871657 -0.12089722 -0.41775808
-0.21168901 0.056895267 0.17063296 -0.13011758 -0.04839277 -0.50012887 0.315666 -0.52374506
-0.6243718 -0.13536294 -0.16052966 0.348935 0.5095438 -0.2849413 0.0027011945 -0.44009802
0.48223728 0.2826629 -0.19293803 0.36501408 -0.43088838 -0.37633324 0.21746854 -0.25062034
0.052315775 -0.33512914 -0.27107584 -0.5254935 -0.3546158 -0.38018537 0.3617446 0.24629417
0.30965468 0.15344316 -0.5431796 -0.31366926 0.048587855 -0.38885087 0.029707117 0.4255695
0.4464145 0.25490066 0.38136688 0.19254513 -0.22501089 0.14900915 0.3813686 0.014865934
-0.024911033 0.10412218 0.020990878 0.510007 0.11670944 0.11795947 0.47554526 0.1414096

conv.0.bias f4 [16]
00000000: 1cd5 8b3d 3c1a 9b3e 8c8e e3be c772 023e
00000010: 112a a9bd 646c fcbd 8db9 b8be a9af 31be
00000020: a0b8 f6be 389c 01be a1fd a13e 4441 243d
00000030: fc83 8d3e 87fb f93e f064 ebbe 08a9 953e
0.06827757 0.30293453 -0.44444692 0.12739097 -0.08259977 -0.12325361 -0.36079064 -0.17352165
-0.48187733 -0.12657249 0.31638816 0.040101305 0.2763976 0.48824713 -0.45975447 0.29230523

conv.3.weight f4 [32, 16, 5]
00000000: 71e5 0abe 8454 dcbd 540d 44bd 51a7 e2bd
00000010: 53a1 10be a7fa 52bd 338f 863b bd45 be3d
00000020: 6cc9 863d 92d2 88bd dd9d 86bd 948e 31bd
00000030: 4863 1dbe 3279 14be b94e 4dbd 9982 1a3d
00000040: c17b 893d 7d33 b4bd 9b12 b0bc 7496 853d
00000050: 53a3 483e 6045 eabc 6ccd 05be 26c6 18bf
00000060: cd91 70bb c33a dbbd 3412 10be 8c8f 55be
00000070: a05d b83c 94b0 afbd 8e22 203e d6ee f8bc
00000080: a3f4 c7bc 1c96 ecbd d951 58bc 2f23 3b3e
00000090: c6d0 95bd 2fd7 7bbe 1436 95be 8863 393e
000000a0: 23ae 523e 7c98 c9bd ebb2 02be 18fc 80bd
000000b0: c19e 88bc 95c0 003d 75ba 07bd 52b3 15be
000000c0: 4b5f 32be 0862 26bb f2ad 27bd 9c78 0ebe
000000d0: 235c aabd 16bc 28be 5941 33bc 06cc 4f3e
000000e0: 02dc 5dbd f5ba 3abe 60a3 50bc b500 f13d
000000f0: 7dea 08be d478 91bd 3bda f73d 9bd1 1c3e
00000100: 06a8 da3d 2dfd 50bc 9112 dfbc 593b ddbd
00000110: f895 e3bb b57b 61bc e086 8f3d be7b 8cbd
00000120: 9489 e9bb 0894 84bd 4fa4 19be 60b0 db3d
00000130: 81f4 a1bc ab68 10bd eb07 ee3d 9981 ea3d
00000140: 805c 11bd 8bc0 8fbb 840f 31be ec99 b6bd
00000150: f163 7d3e dcea 46bd fa5f 323c 8fd4 cb3d
00000160: 8b8e 953d e96e 153e c22d 223e 5846 f33d
00000170: 444d f03d ba8b dc3c 9904 b73c 6b36 0c3e
00000180: a215 7c3c 1750 933d 573a 0ebe 3bab c5bd
00000190: 0f1c 953c a470 f0bb 9b58 233e 8bf4 bf3e
000001a0: 6787 cf3d 1974 73be c524 38be af83 653d
000001b0: f60e b63d 05be d73d bdf0 803c e3a1 c3bd
000001c0: f2cc a2be b219 12be d614 bf3c 7fb8 30bb
000001d0: 257e e63d 674b 353e 718c 5d3e ac7d c43c
000001e0: 8f2e d5bd de51 b73d 9ff7 9f3d d0a5 c43d
000001f0: 961a 033e 9702 113b 5d1f 07be 3157 86bd
00000200: 4db3 acbd b8c7 98bd 521c 6a3c e6d8 30be
00000210: 20bd 57be 3bea a1bb e323 a13d 8c59 2cbc
00000220: 8f31 efbd 6ae3 ffbb fd39 983e 653f c63d
00000230: 7ef9 a93d a701 fe3d 3720 a03d c631 2cbe
00000240: 86e8 92bd 674e eebc 571f 8bbc 8a93 2e3d
00000250: 4544 7b3d dfc6 16bd ec09 0fbd f517 0a3e
00000260: 586c ff3d 056c 7f3d dbfc a7bd 4401 ed3d
00000270: 68a7 483e 7a37 143d aa6c edbd 40a4 32be
00000280: 78e5 95be ac1e 3cbe 1801 b0bd 815f bb3c
00000290: 7039 313e 253e 24be 6a3b 243d 2597 903d
000002a0: 4aff 013d 065c b13d cdb1 5f3d 8221 e03d
000002b0: f9dc 5a3e 7cc3 4b3e 36f3 aa3b 36bb 873c
000002c0: e45b 0a38 5a86 c73d 9133 da3d 0cd2 713d
000002d0: c25e 273b 64be 0ebe 4c45 a7bd f5a8 71be
000002e0: 560a e8bc f3bc 9a3d 7f29 28bd 3809 843d
000002f0: 7d60 f53d 7ff9 853e d530 83be 5303 e1bc
00000300: 2f47 913c 10bc b1bc 5168 9fba 0566 f3bd
00000310: 4490 a1bd 6755 71be e1f6 74be 5903 8cbe
00000320: 9c01 00be cc72 98be 7978 89bd 8e47 e2bc
00000330: 1a4f 49be 52b9 6cbe 87ea ebbc cbe6 913d
00000340: 32fc 3f3e 0b1a 8b3e b8ed 51be a9f3 64bd
00000350: 6da4 363c 02fd 82bb 1c24 7a3e f55f 2ebd
00000360: 0dd7 5b3e b85d 8dbb 477f d13d ad09 b03d
00000370: fed4 353c e9df a8bd 604d 00bb 5555 bfbd
00000380: ea86 06be 3c9b 023e 54b8 a73d f950 02bd
00000390: 9ad8 11bd f624 abbd 8b21 903b dffa 0b3d
000003a0: 84e6 e23d 11ad 14ba 64b8 093e fc5b 5d3d
000003b0: 30a9 f93c 0111 1f3e f83e 983c 96cf 923d
000003c0: b4d2 12bb 191b 3fbe 6e04 7bbe 5943 90be
000003d0: 3602 f1bd 0661 01be e7c1 fdbd 83a8 f1bc
000003e0: c145 14be b1a8 0c3d 505a cabd 55a1 29be
000003f0: fc3c b0bb bca5 31be 023a 40be fee0 eabc
-0.13564087 -0.107583076 -0.047864273 -0.11067069 -0.1412404 -0.051508572 0.004106426 0.09290645
0.06581387 -0.06680788 -0.06573079 -0.043348864 -0.15369904 -0.14499357 -0.050123904 0.037722204
0.06713057 -0.08798883 -0.021493247 0.06522837 0.19593553 -0.028597534 -0.13066643 -0.5967735
-0.0036707998 -0.10704567 -0.14069444 -0.2085554 0.022505581 -0.085786015 0.15638182 -0.030387323
-0.024408644 -0.115520686 -0.013203108 0.1827514 -0.07315211 -0.24593805 -0.2914282 0.18104374
0.2057424 -0.09843537 -0.12763564 -0.06298083 -0.016677262 0.03143366 -0.033136804 -0.14619187
-0.17419164 -0.002538802 -0.04093737 -0.13913196 -0.08318355 -0.16477999 -0.010940873 0.20292673
-0.054164894 -0.18235381 -0.012734264 0.11767713 -0.133707 -0.07103124 0.12102171 0.15314333
0.10676579 -0.012755674 -0.027230533 -0.10802335 -0.006945368 -0.013762404 0.07008147 -0.068595394
-0.0071269963 -0.06473547 -0.15004085 0.10727 -0.019769909 -0.03525607 0.11622604 0.114505
-0.035488605 -0.0043869666 -0.17291075 -0.08916077 0.24745156 -0.048563823 0.01088714 0.09952652
0.073025785 0.1459309 0.15837768 0.118786514 0.11733487 0.026922096 0.02234106 0.13692634
0.015386017 0.0719301 -0.13889442 -0.096518 0.018201856 -0.0073376466 0.15951769 0.3749126
0.10133248 -0.23774756 -0.17982776 0.056033786 0.08889572 0.1053429 0.015739793 -0.09552362
-0.31796986 -0.14267614 0.023325365 -0.0026965437 0.11254529 0.17704545 0.21635605 0.023985706
-0.10409271 0.08951162 0.07810902 0.09601939 0.1280311 0.0022126788 -0.13195558 -0.06559599
-0.084326364 -0.07459968 0.014288979 -0.1727024 -0.21068239 -0.0049412525 0.07868173 -0.0105193965
-0.116793744 -0.0078090923 0.29731742 0.0968006 0.0829954 0.12402659 0.078186445 -0.16815862
-0.071732566 -0.02909012 -0.016982717 0.042621173 0.061344404 -0.036810752 -0.03492157 0.13485701
0.12471837 0.062358875 -0.08202525 0.11572507 0.1959511 0.03618572 -0.11592992 -0.17445469
-0.29276633 -0.18371075 -0.085939586 0.022872688 0.17307067 -0.16039331 0.040095724 0.070600785
0.031737603 0.0866013 0.054612923 0.10943891 0.21373357 0.1989879 0.0052169813 0.016568761
3.2987344e-05 0.097424224 0.10654367 0.059038207 0.0025538658 -0.13939816 -0.08167514 -0.23599608
-0.028325241 0.075555705 -0.0410552 0.06447071 0.11981294 0.26166913 -0.25623193 -0.027467405
0.017734138 -0.02169612 -0.0012161826 -0.11884693 -0.078888446 -0.23567735 -0.23922302 -0.27346304
-0.12500614 -0.29775083 -0.067124315 -0.02762201 -0.19659081 -0.23117569 -0.028798355 0.071240984
0.18748549 0.27168307 -0.20500839 -0.055896435 0.011147601 -0.003997446 0.24427837 -0.04257198
0.21468754 -0.0043141507 0.10229354 0.085955955 0.011098145 -0.082458325 -0.001957737 -0.09342448
-0.13137403 0.1275453 0.08189455 -0.031815503 -0.035606958 -0.08356659 0.00439853 0.034174796
0.110791236 -0.0005671541 0.13449246 0.0540428 0.030476183 0.1553383 0.018584713 0.071685
-0.002240342 -0.1866268 -0.24513409 -0.28176382 -0.11768 -0.12634668 -0.123904996 -0.029499298
-0.14479734 0.034340564 -0.09880507 -0.1656545 -0.0053783637 -0.17348379 -0.18772128 -0.028671738

conv.3.bias f4 [32]
00000000: b99f 1f3e 10d8 21bd 24a5 07be a5e0 1c3d
00000010: 8d6a 97bc d22e e73d 0cc8 983d 3374 0fbe
00000020: b9b7 2f3e abbb 273e 2965 0abd c374 68bc
00000030: 379a 4bbe c281 18bd 106e 09bd 0262 18bd
00000040: 6d3d 383d e640 30be c189 143e b3ed 5a3c
00000050: e940 1a3d 8554 cabd 1dfa 173e e091 2c3e
00000060: a762 df3d 66f3 e33c dc50 093e 6a3a 9f3c
00000070: e14a 9b3d 0be3 d23d 0496 e53d 9819 2dbd
0.15588273 -0.039512694 -0.1324659 0.038300175 -0.018483425 0.11288227 0.07460031 -0.1400917
0.17159928 0.16380183 -0.03378788 -0.014187994 -0.19883047 -0.03723312 -0.03355223 -0.037202843
0.044980455 -0.17212257 0.14505674 0.013362336 0.03765956 -0.09879402 0.14841504 0.16852522
0.10907488 0.027826022 0.13409752 0.019437034 0.075826414 0.10297211 0.11210254 -0.042260736

fc.0.weight f4 [64, 1728]
00000000: 2072 9abc 366d 4e3c 288a 373c ca55 95bb
00000010: e1bd e7bc ff7c cebc a3b1 81bc c57e 8ebc
00000020: 08ed 0fbc f348 eebc 8e36 abbc 5cfc 103c
00000030: 9c8d 283b 2b7c e33b 4357 e9bc 4e0f a2bc
00000040: 1332 603c 0c1e 54bc 2f5c 2c3b 1911 243b
00000050: aaab 77bc 2364 4bbb ec5c 8dba 7235 513c
00000060: 1509 5e3c 19bb febb ff92 e63a 8e3b 133c
00000070: 73a6 313a 2219 01bd e8b8 dfbc 3c38 b13a
00000080: b7e2 d5bc b69e f8bc 2741 48bc 0047 563c
00000090: 89ce 9cbc 95f2 ecbc fafd ddbb 7052 c7bc
000000a0: 06b4 f8bb c783 85bc 94c3 2abb 9c74 183a
000000b0: c12e 5b3c 4b15 e5bc 4805 353b 1c37 5b3c
000000c0: ef56 623c 5660 46ba 587b b039 2e0e f53b
000000d0: b5d5 90ba 883f 93bc 1feb 883c 5130 56bc
000000e0: a17f 4ebd b551 d7bc 3326 b5bc cfb9 d9ba
000000f0: 9fd1 f6bc ac4b d5bc c0bd 52bd 6bbf 16bd
00000100: 8099 18bd 1920 56bd 4bfa 0cbd ed6d 6dbd
00000110: a0fa 99bc 5a29 84bc c12c 37bc 1a8a 80bc
00000120: eda7 18ba 9a94 5ebc 80e8 80bc 6e92 3bbd
00000130: 48bc d0bc 74ac 56bb a3cf c5bc cbc4 a5bc
00000140: a52a 28bd c38f 1abd 2e9d d1bc d54f 14bd
00000150: 9078 63bd 0ad3 9abc df3d 83bc 0770 0dbd
00000160: 1f6c 53bc 79f3 d0bc bbf8 f7bc 5751 3bbd
00000170: 6d84 eabc 4713 b6bc 762a 50bd 5874 40bd
00000180: e3e9 4abd 73d0 12bc 8813 2bbc 6214 33bc
00000190: c391 c3bc ae05 15bd 299a dfbb 5894 24bd
000001a0: bb17 e3bc 8232 67bb c8c4 65bc a6a8 763b
000001b0: ac38 1cbd 1532 d9ba 3c21 1fbd 3449 0abd
000001c0: 5aca abbc 88ec 42bd 1f30 95bc 32e2 26bc
000001d0: 4631 20bd de60 dabc cfd5 fcbc 7fd8 b9bc
000001e0: 804b b4bc d8ff cdbc 9de9 0abd ad9a 103c
000001f0: aeab 773b 962f 703c 0fb2 9dbb 72fc 99bc
00000200: 5df8 263c bfe5 603b 631a b63c 91a8 a1bc
00000210: cfe7 6fbc e89e 383c 0ad6 e5bc 5e3b 23bd
00000220: 2f51 003a 3c54 95bc 18da eabc 05f1 1dbd
00000230: 6f95 443b 0d6b f1bc ec8a 19bd 967b 09bd
00000240: ec7d 28bc 70b1 33bd 7b30 87bc 892a eebb
00000250: a3e3 cabc 63d6 01bd 4167 6ebc 2d52 1ebd
00000260: 2894 93bc fc37 f0bb baa1 09bd 9858 33bd
00000270: 7cc4 fc3a 5d8f f2bc 1da4 32bd 65ad 76bc
00000280: a5d3 43bd ffa6 07bc fde8 fbbc 88bf 3c3c
00000290: b95b 043b 7a81 8cbc 0fc6 493c 90b0 e1bc
000002a0: d3c9 dfbc 5d2a 29bb 05bf d23b 5b5e cbbc
000002b0: 9696 f93b 02ed dabc b804 8fbc 19e3 c3bc
000002c0: 1321 78bb e170 923b 39f1 6b3c e3fc 9d3b
000002d0: f697 eeba 21e5 dcbc fe2e cdbb 0e31 8fbb
000002e0: 2f3b 69bc 297d 8fbc 1a24 8ebc 53e2 01bb
000002f0: 0bc4 78bb e9cc 10bc f01b a138 072d bebb
00000300: 6e26 a5bb 08e1 ab3b ac3c 3e3c 6673 173b
00000310: 30cf 90bc 647d 07bc c4d5 243b 07b2 6c3c
00000320: 27e1 3b3c f255 4dbb b91d f8bc 99cc 373c
00000330: c1f8 f7bc 73ba 95bc 6355 febc a703 523b
00000340: 83f0 50bc eb83 b9bb 70e3 b0bc 40b0 eabc
00000350: 45b6 f7bc c3b9 b23b 20fc 10bc cce5 2e3c
00000360: 421b 93bb 5dbf 24bd 72f8 3bbd e52c ddbc
00000370: 9441 813c ee15 e2bc b444 c6bc 6e60 b1ba
00000380: 8b29 053c ae1a 233a 9b12 2d3c edcc adbc
00000390: 9f25 313a 91fc 62bb 9576 12bb fa9a 2d3c
000003a0: 1abc 31bc 935d 5ebc 6f22 9cba ebd4 09bc
000003b0: 38ad b2bc dc34 8dbc 3c9c f4bb 1e94 35bc
000003c0: 5ac0 f93b e49a 4cbc 6a17 f8bb 11e8 8bbc
000003d0: 9be1 43bc 8c8b 54bb 2240 cebc b749 bc3b
000003e0: 6bc5 1fba faa5 babc 9b69 f33c 0df6 b53c
000003f0: d9cf 32bc da80 88bc 379a 5ebc 4433 823c
-0.018853247 0.01259928 0.011202373 -0.004557346 -0.028288784 -0.025206087 -0.015831774 -0.017394433
-0.00878454 -0.02908752 -0.020900037 0.00884923 0.0025719171 0.006942292 -0.028483992 -0.019782688
0.013683814 -0.012946617 0.0026300063 0.0025034605 -0.0151166115 -0.0031035028 -0.0010785139 0.01276909
0.01355197 -0.0077737686 0.0017591416 0.008986367 0.0006776817 -0.03151811 -0.02730985 0.0013520787
-0.026109083 -0.030349117 -0.012222565 0.013078451 -0.019141452 -0.028924266 -0.006774661 -0.024331301
-0.00758982 -0.016298188 -0.0026056515 0.0005815716 0.013377846 -0.027964255 0.0027621556 0.013379838
0.013814672 -0.0007567456 0.00033661234 0.007478497 -0.0011050018 -0.01797463 0.016713677 -0.013073043
-0.050414685 -0.026284078 -0.022112941 -0.0016611161 -0.030129252 -0.02603706 -0.05145049 -0.036803644
-0.037255764 -0.052276704 -0.034418385 -0.05796616 -0.018796265 -0.016133 -0.011180104 -0.015690852
-0.0005823363 -0.013585234 -0.015735865 -0.045793943 -0.025480404 -0.0032756599 -0.02414686 -0.02023544
-0.041056294 -0.037734758 -0.025587644 -0.036208946 -0.0555349 -0.01889946 -0.016020713 -0.034530666
-0.012904196 -0.025506722 -0.030269971 -0.04573187 -0.028627599 -0.022225989 -0.050821744 -0.046985954
-0.049539458 -0.008960831 -0.010441668 -0.010930153 -0.023873216 -0.03638237 -0.0068237972 -0.040180534
-0.027721277 -0.0035277908 -0.014023967 0.0037637143 -0.038139984 -0.0016570712 -0.038850054 -0.03376122
-0.020970512 -0.047588855 -0.018211422 -0.010185765 -0.03910949 -0.026657518 -0.03086367 -0.022686241
-0.022008657 -0.02514641 -0.033914197 0.00882594 0.0037791538 0.014659783 -0.004812486 -0.018797133
0.01019105 0.0034316627 0.022229379 -0.019733699 -0.01464267 0.011268355 -0.028056163 -0.03985154
0.000489491 -0.018228643 -0.028668448 -0.038559932 0.0029996296 -0.029469991 -0.037486 -0.033565126
-0.010283928 -0.04387039 -0.01650261 -0.007268254 -0.024766749 -0.031698596 -0.014550985 -0.038652588
-0.018014982 -0.0073308926 -0.0336015 -0.04378566 0.0019284631 -0.029609377 -0.043613542 -0.015055989
-0.04780926 -0.008279561 -0.030750746 0.011520274 0.0020196273 -0.017151583 0.012315287 -0.027550012
-0.027317917 -0.0025812604 0.0064314627 -0.024825266 0.007616828 -0.026724342 -0.017458305 -0.023912
-0.003786151 0.0044690226 0.014400774 0.004821406 -0.0018203247 -0.026964726 -0.0062617054 -0.0043698614
-0.014235302 -0.017515736 -0.017351199 -0.0019818738 -0.0037958648 -0.008837917 7.682282e-05 -0.0058037075
-0.0050399816 0.0052453317 0.011611145 0.0023109554 -0.01767692 -0.008269642 0.0025151828 0.014446742
0.011467255 -0.0031331745 -0.03028761 0.0112182135 -0.030269982 -0.018277382 -0.031046575 0.0032045634
-0.012752655 -0.005661478 -0.021592826 -0.028648496 -0.03023828 0.0054542734 -0.008849174 0.010674905
-0.0044893334 -0.04022156 -0.045891233 -0.026998946 0.01577834 -0.027598348 -0.024202682 -0.0013532767
0.00812758 0.0006221932 0.010563518 -0.02121588 0.000675762 -0.0034635405 -0.0022348512 0.010596031
-0.01084807 -0.0135721145 -0.0011912117 -0.00841258 -0.021811113 -0.01723712 -0.0074649137 -0.011082677
0.007621807 -0.012488101 -0.0075711505 -0.017078431 -0.011955644 -0.003243181 -0.025177065 0.005746092
-0.0006094786 -0.022784222 0.029713443 0.022212053 -0.010913813 -0.016663004 -0.013586572 0.015893586

fc.0.bias f4 [64]
00000000: 763b 6bbb 5977 7fbd b789 0abd 24d9 623c
00000010: b361 883d d267 77bd 94f6 8cbb 28a0 bd3d
00000020: c57d c63d d619 1d3d 80ce 7bbd 21ab 543d
00000030: 4803 35bd 4ec7 653d 7604 3d3a 2430 74bd
00000040: 9e06 9ebc 4d4f 853c 112d a8bd 8968 9c3d
00000050: 8792 0dbc b52e 9d3c 0ce0 49bc 7114 80bc
00000060: adfb 84bc 1963 1e3e 34bd a33d eb7e d9bd
00000070: 6054 4a3b aaff 70bd 6024 ca3a 36c0 16bd
00000080: d100 7dbd bef4 403c 744d cabc eecd debc
00000090: 0a04 25bd 8982 5c3d 2497 94bc b0ca bdbc
000000a0: bb3e f83d 1707 c63d 6365 afbc a3a2 b23d
000000b0: d342 77bd 5dc0 403c 67e6 b9bd 2876 e0bc
000000c0: d8a5 75bc 7a09 5d3d 8b2f c9bd a17e aaba
000000d0: 2e25 51bc 1f3d 42bd 7662 883c 4bd6 853d
000000e0: 2018 c13d a0ce 233d a597 143c 222d 8c3d
000000f0: 0518 203e 88c5 e33d 5669 143c b05c 30be
-0.0035893596 -0.06236968 -0.03382274 0.013845716 0.0665926 -0.060401745 -0.0043018553 0.09259063
0.096919574 0.038354717 -0.06147623 0.051921014 -0.044192582 0.056098275 0.00072104426 -0.059616223
-0.019290265 0.016273165 -0.08211721 0.07637126 -0.008640892 0.01918731 -0.012321483 -0.015634747
-0.01623329 0.1546749 0.07995072 -0.10619911 0.0030873045 -0.05883757 0.0015422218 -0.0368044
-0.061768357 0.011777101 -0.024695136 -0.027197804 -0.040287055 0.053835426 -0.018138476 -0.023167938
0.1212134 0.09669321 -0.02141065 0.08722427 -0.060366463 0.011764613 -0.09077149 -0.027400091
-0.0149931535 0.053964116 -0.09823521 -0.0013007709 -0.012765212 -0.04742157 0.016648512 0.06535014
0.094284296 0.039991975 0.009069358 0.06844546 0.15634163 0.111216605 0.009058317 -0.17222857

fc.2.weight f4 [2, 64]
00000000: 1c80 0e3c 5d87 96be fdc3 60bd 4a0d cdbd
00000010: cca6 7d3d 1b92 8cbd 5af8 ed3d 3e23 953d
00000020: 64fa 93be 1801 aa3e ef95 8f3d 24fb c33d
00000030: 2e76 9b3d 1273 103e 3b94 44bc f61c babd
00000040: 4168 57bc b408 d73d 51f2 7bbe 6aff 783e
00000050: a2bf 3e3d 0125 b03d 9df3 89bc 355f d63d
00000060: 7d8c 3abd 7c8c 84be 2306 f13d a319 d23c
00000070: e201 dcbd dc24 1e3d 68da e93d 4710 7abe
00000080: 0311 2dbd 749b 403d 5b02 47be 5cb0 a5bd
00000090: 4fd6 e2bd 36d9 8f3d f5cf c7be d1c2 ad3c
000000a0: 03af 263e 6e10 413e 05a6 ebbb 1c00 c93d
000000b0: 4737 58be 5a6a e1bd 46e6 d8be 24b4 e43d
000000c0: 9ef4 313b f0f4 1e3e 0a96 ebbd 0b91 f53b
000000d0: 7f33 913d cbb2 cebd 23d9 90bc f834 f53d
000000e0: 7e74 a8be bac4 8c3e 222f 10be 1edc 0c3e
000000f0: 5e06 9dbe 43ac 463e f2e9 a03d a462 90bd
00000100: 1821 3e3c 801f 4e3e a204 79bd 066a 77bd
00000110: d092 e7bd e306 133e 788e 72bd 3a18 8cbd
00000120: 3165 783e 4c2d 84be 77b5 533d 3920 d23c
00000130: f1d9 7d3d 867a fabd ec35 3f3c ce99 c9bd
00000140: ebc2 34bc 78b3 993d d21c 4b3e 25d4 22be
00000150: 593e 273d 234d 1abe daea 8b3c 96da 7d3d
00000160: 0410 c13c 2f84 683e b0ec a9bd 9caa a0bd
00000170: 7e74 90bd b545 193e 60a7 da3d c863 763e
00000180: 639b a1bd 5b0a 833d 0f1f ba3e 12c4 81bd
00000190: 3188 a6bd ecaa f5bd 0302 7b3e 7457 8fbd
000001a0: 25a9 a9be 6862 51be b707 2d3d 7ffa 56bd
000001b0: a8fd 693e 339c 5abd 8c99 843e 8a3d 9d3d
000001c0: f774 653c 4c07 77bd b1c6 ab3e eba8 e23b
000001d0: eb75 943d f245 1fbd ffa7 de3d 5f91 17bd
000001e0: b4eb a23e 1bf3 42be 2f65 483a e8f5 a03b
000001f0: dd19 ee3d 7643 68be 82bb a83d bb1b 353e
0.008697536 -0.2940015 -0.05487441 -0.100123 0.061926648 -0.06863805 0.11619635 0.072821125
-0.2890197 0.3320396 0.070110194 0.09569386 0.075909 0.14106396 -0.0119982315 -0.09087555
-0.013147415 0.10499707 -0.24604155 0.24316183 0.046569474 0.08600808 -0.016839797 0.10467378
-0.045544136 -0.2588843 0.117687486 0.02564699 -0.107425466 0.03860937 0.11418611 -0.24420272
-0.04225255 0.04702325 -0.19434492 -0.080902785 -0.11076032 0.070238516 -0.39025846 0.02121106
0.16277699 0.18853924 -0.007191422 0.09814474 -0.21114837 -0.11006613 -0.42363185 0.111671716
0.002715386 0.15523124 -0.11503227 0.007494097 0.070899 -0.10092696 -0.017681664 0.119729936
-0.32901376 0.2749384 -0.1408048 0.13755843 -0.3066892 0.1940165 0.078571215 -0.07050064
0.01160457 0.20129204 -0.060795434 -0.060403846 -0.11307299 0.14358096 -0.0592179 -0.06840558
0.24257351 -0.2581581 0.05168673 0.02565013 0.061975423 -0.12230401 0.011670571 -0.09843789
-0.0110328 0.07504934 0.19835213 -0.15901239 0.040830944 -0.15068488 0.01707976 0.061976038
0.023567207 0.22706674 -0.08297098 -0.07845041 -0.07053469 0.14967997 0.106764555 0.24061501
-0.07890966 0.063984595 0.3635182 -0.063362256 -0.08131445 -0.119954914 0.24512486 -0.06999102
-0.3313686 -0.20447695 0.042243686 -0.052484985 0.22850668 -0.05337162 0.25898397 0.07677753
0.014004937 -0.060309693 0.33550027 0.0069171092 0.072490536 -0.038885064 0.108718865 -0.03700387
0.31820452 -0.1903805 0.0007644472 0.004912127 0.11626027 -0.22681984 0.08238889 0.1768636

fc.2.bias f4 [2]
00000000: 8b2d 533e 48dd 8b3b
0.20622842 0.004268322
