ecg_cnn_phase1.pth (torch, 165637 bytes, 25 tensors)

conv_block1.0.weight f4 [16, 1, 7]
00000000: ec8f 803e c338 62be 799b 81bd 6e12 10be
00000010: e1e1 a83d a4b6 11be 1fbc 89be fb28 7b3c
00000020: 8ef9 2e3e ed13 59be 9bfc 7e3e 33af d9bb
00000030: e272 e1be 48ce b03e fcf4 9e3e 7532 21be
00000040: b496 9dbe 877f 9bbe e42c da3e 7b22 ea3d
00000050: a394 6bbd 2a9b 8abe e798 c93d 60fe cfbd
00000060: 3cfb abbe 16cb b53e 864d 4cbd 8207 72ba
00000070: 7e0d 983c 8a9b 4e3d ad6e 443d 9347 cd3e
00000080: b8a2 bbbe 346e 8e3e 2840 71be 998c 2dbd
00000090: c9cb b9be 907b ad3e 950d 733e 870a 56be
000000a0: 04e9 10be a5e1 c93d 9583 a8bd 82de a0be
000000b0: 6b08 e5bd 248b 173e b6e3 713e 6712 debe
000000c0: 9bae 14bb 8e2f 90be 471f b23b 20da 0a3c
000000d0: f156 6fbe 4819 95be 5d4a 123e 9bc0 8d3e
000000e0: 3dd4 993e eeae 323d 85fe bcbe 7739 6d3e
000000f0: 0248 0d3e 2e2c 19be c081 13ba e095 7d3d
00000100: 63d8 c43d e311 99bd a5bc ea3d dc50 ab3d
00000110: ab69 1dbd 82ce d5be e5e1 113e 8f2f 953e
00000120: 2682 d2bd afe9 e4be d3c6 b2be c95e c43e
00000130: 4ee7 25be 1f85 f5be bcbc 563e b2d5 26be
00000140: 1987 963e a01f 323e 233f 08be f00f 033e
00000150: 371e a93e 879c 173e aad4 503e dec9 1dbe
00000160: f386 243e 234e 2ebe 5137 d6be cffc a13d
00000170: 0974 303e 6a76 84bd a5f1 68bd d5d3 013e
00000180: b767 163f 3e5f a13d 5db5 0a3e 5e8c 26be
00000190: c868 943e 1106 fabe dc6d a63e 45a8 e33c
000001a0: a951 59bd 36d7 653e 79b4 c93c 10f5 563e
000001b0: e226 403d d2e2 293e cb66 0d3f be68 e23e
0.25109804 -0.22091965 -0.06328482 -0.1406953 0.08246208 -0.14229828 -0.26901338 0.015329595
0.17087385 -0.21199007 0.24901049 -0.0066432 -0.4403296 0.3453238 0.31046283 -0.15741904
-0.3077904 -0.30370733 0.42612374 0.11432358 -0.057514798 -0.27071506 0.09843617 -0.1015594
-0.33590114 0.35506505 -0.04987862 -0.0009232686 0.018561121 0.050441302 0.04795711 0.4009367
-0.36647582 0.27818453 -0.2355963 -0.042370412 -0.36288288 0.33883333 0.2373565 -0.20902453
-0.14151388 0.098574914 -0.08228222 -0.3141976 -0.11183246 0.14799172 0.23622021 -0.43373415
-0.002268708 -0.2816128 0.0054358575 0.008474857 -0.2337301 -0.2912085 0.1428618 0.2768601
0.30044737 0.043623857 -0.36912933 0.23166452 0.13797 -0.1495826 -0.0005626939 0.06191051
0.09611585 -0.07474115 0.11461762 0.08365032 -0.03843085 -0.41759115 0.14246328 0.29137847
-0.1027873 -0.44709536 -0.34917316 0.38353565 -0.16201517 -0.47953126 0.20970434 -0.16292456
0.29399946 0.17394876 -0.13305335 0.12799048 0.33030865 0.14805804 0.20393625 -0.15409037
0.16067104 -0.17021994 -0.41839078 0.079095475 0.17231764 -0.06467898 -0.056871075 0.12678464
0.58752006 0.07879494 0.13545747 -0.16264483 0.28986192 -0.48832753 0.3250569 0.027790198
-0.053056393 0.22445378 0.024622189 0.20991921 0.04691208 0.16590431 0.55234975 0.44220537

conv_block1.0.bias f4 [16]
00000000: 3e67 f43e 09fe a8bd 103e 0fbf c05b 9d3e
00000010: a02b 533e 398d 5abe 377a 533e 998a 103d
00000020: d93a 8cbe 2779 1d3e 8830 8fbe efdd 483e
00000030: 990d e5bc aced 1c3e d7ea cd3e f668 293e
0.47735018 -0.08251578 -0.55954075 0.30734062 0.2062211 -0.21342935 0.2065209 0.035288427
-0.27388647 0.15378247 -0.27966714 0.19615911 -0.027960585 0.1532504 0.4021823 0.16543946

conv_block1.1.weight f4 [16]
00000000: 99b1 823f 4b5a 3c3f 55d5 8e3f 72e2 903f
00000010: 7ced 3e3f faa0 7c3f 0e88 7f3f 311d 9f3f
00000020: 4a5e 5f3f 004a 903f 9103 7c3f dd7b 9b3f
00000030: ace6 8c3f fe97 553f 36fa 563f 55f8 3e3f
1.0210449 0.73575276 1.1158854 1.1319106 0.7458112 0.9868313 0.9981698 1.2430784
0.8725325 1.1272583 0.9844294 1.2147175 1.1007895 0.83435047 0.8397554 0.74597675

conv_block1.1.bias f4 [16]
00000000: a70b 7bbe 640c 7dbe 3c0e 88bd e828 bfbd
00000010: 8a55 7b3b 7dc7 69bd 4943 31be 6618 d2bd
00000020: 876e 14be 6cd9 bbbc 845c 8b3e e4b6 813e
00000030: 9b80 563e 55d8 85be dc65 59be 6b14 b4bc
-0.24516164 -0.24711758 -0.0664334 -0.09333974 0.0038350546 -0.057075012 -0.17310824 -0.1025856
-0.14495288 -0.022930823 0.2721902 0.25334847 0.20947497 -0.2614161 -0.21230263 -0.021982392

conv_block1.1.running_mean f4 [16]
00000000: 85ac ca3e eb5b 82bd 2afc 0dbf 8b9f 803e
00000010: 65bb 773e 21d1 66be 0fd4 e43d 6da4 0bbd
00000020: f316 74be 69e9 063e d1e7 a1be 0ac9 493e
00000030: 504d 2ebb 996f 9b3e 5baa d43e 3b1f df3e
0.39584747 -0.06365188 -0.55462897 0.25121722 0.24192579 -0.22540714 0.111732595 -0.034092356
-0.2383688 0.13174976 -0.31622174 0.19705597 -0.0026596375 0.3035858 0.4153622 0.43578514

conv_block1.1.running_var f4 [16]
00000000: bbc1 3a3c 5d01 8a3a c0c3 7e3b 8515 ab3b
00000010: 4a3b 493b b4c9 123b edf5 6c3c 5c7e 1e3c
00000020: 846c 593b 434a 403b fe25 0b3c 21bf 8b3b
00000030: 734f 063c 81d3 0f3d c96f 763a 7d0a e23d
0.011398728 0.0010528971 0.0038874 0.005221071 0.0030705505 0.0022398056 0.01446293 0.009673681
0.0033176253 0.0029341138 0.008492945 0.0042647277 0.008197653 0.035113815 0.00094008126 0.11037157

conv_block2.0.weight f4 [32, 16, 5]
00000000: d4c3 0c3d b1a5 1fbd f51d 21bc 6698 0bbd
00000010: 6040 3a3e e978 353b 27f8 273d e6b1 a33c
00000020: 23e7 86bd 6307 18be 272b 01bd 24dd 88bd
00000030: 23cd 40be c0d0 be3d 8cf1 88bd 2ed4 36bd
00000040: 400b 293e 4184 6fbd 0818 433c c170 2a3d
00000050: b67d b33d 627c 7d3c b257 56bd 9140 e93d
00000060: 31b4 54be 484a a3be e2d1 31be 9b06 483e
00000070: ded6 0f3e 6787 06bd 0a83 0d3e 87a5 d23c
00000080: fd5c c9bc ba8e 873c b587 0fbe 9470 813c
00000090: 7f3b 033e 1f8d 143e cc02 363d ed6d 29bc
000000a0: 0557 ae3d 390f 203d 3b2b 0e3b 7b37 063e
000000b0: d120 123d 37b3 d8bd b115 41be 9d2c 503d
000000c0: aaca 9cbb 5f1e d8bd 760f 453d 2bff b23c
000000d0: dbc1 49be 23fe 6fbd 9efd 48bc 5a45 5e3e
000000e0: 2c01 babe 6344 d3bd 1478 623e 58e8 703d
000000f0: 17f8 1e3e 8e26 06bc a777 2d3e a532 b8bc
00000100: b700 133e 2fc2 5b3c 6295 cbbd b768 40bc
00000110: 40bd 06be c1ae 2fbe dbc4 ea3d ba25 ecbd
00000120: b332 003d f45a 273e ac2f c1ba d28b 96bd
00000130: 0e97 c93b 2d07 0b3d ea30 cb3c 8560 3abd
00000140: aa98 8a3e c16c 78bd e821 38be caa8 d7bb
00000150: 3510 1a3e 9fce 1b3e e2a3 95bd c278 2fbc
00000160: f27e 65bd 7c9f fa3d c044 aabc 0446 f4bc
00000170: 1ab6 113e 8087 3d3e 568a 463e faec 453a
00000180: 3690 023e 2a91 763d d83c 32bd 7e72 ba3c
00000190: f74d 143d 0858 7b3c 3877 fcbd 337e a2bc
000001a0: 2ce4 da3d a470 653d dc15 f9bd ec05 333d
000001b0: c4e4 00bd d1de 243e 20bf 33bd 6f2b efbb
000001c0: 2e14 2ebe f7c2 babd a76b 2e3d d710 643d
000001d0: 24cd fd3a 4deb cb3d 6f79 abbd bed1 333e
000001e0: f26a be3d b5e4 1fbe 9118 9c3d 8786 8e3d
000001f0: 7339 083e efe1 09bc 7f60 ca3c 5ee7 8f3d
00000200: d54f c23d 6d27 a73d b453 083e e73e 193e
00000210: 9cae c4bd 618d 823e 3e36 943d d2e0 023e
00000220: e26f 81be 062b 85be b7a5 06be 98ff 363e
00000230: 7fdc d93d 7a09 8fbd 47b9 00be 658c b03d
00000240: d60b a63d bffe 973b d235 8ebd c437 b7bd
00000250: 5456 5d3d 77a1 bf3c 1c6f 1bbc b35c 343c
00000260: 726a 9cbc ec1e 19be 6003 bbbd e988 c13d
00000270: 35cb 2e3d b8d7 f53b 4175 f0bd 59b9 0cbd
00000280: f0f7 92be 249c 8b3c 89a8 123e a908 5c3c
00000290: 1eb8 713d 64dc 71be e018 ac3d 4474 8b3c
000002a0: e8e5 17bc 9709 0f3d 6f2f c0bd 0e8d 29be
000002b0: 7587 093e 8b74 223e 803f 62bd 411b 583e
000002c0: f79d 6fbe 70b3 47bd ea3c fc3d d85c ec3d
000002d0: 27dd b03d 910b 063d 5108 b23c 835e 9fbd
000002e0: e482 01bd d825 923d feee d23d 7840 593d
000002f0: 433a 0f3d 9cf4 34bd 575d 7d3d fbc2 78bd
00000300: c92b d83d 9397 763d 7b48 a1bd bd55 4a3e
00000310: 94b6 30be 5c52 8cbe e92a 083d 96ab cd3b
00000320: 78b3 3cbd fdc0 80bd a9e1 bfbc f7bc fcbc
00000330: bc6d 68bd 09f7 32bc d513 54bb 97da 8bbd
00000340: 40f9 4abe dbdc 23bb d0bf bdbe bc3d 043d
00000350: 0a90 483e fbd0 ee3c 6349 93be bf34 2bbc
00000360: d07e 013e e75e a93d c5b0 893d c971 bbbd
00000370: c3f5 77be 9848 9fbb bdb0 14be 2670 cbbc
00000380: 7fa0 d73b 6416 e1bd 059f 84bd b25a 2fbd
00000390: e3ac afbc f695 713c 71c7 70be f417 c63c
000003a0: 1523 df3c ab1f 9b3d 5508 713c 3405 21be
000003b0: 3313 cebc 0da8 c2bb 6654 25bc d6a6 323e
000003c0: 1a3d 393e 8590 acbd e6cc d5bd 5a17 093e
000003d0: fd4a 5f3b 5a10 603b 98d4 d83d d6ce bdbd
000003e0: e266 2fbe f71f 54bc 56c0 f8bd f5fd 67bd
000003f0: 6531 8a3d 037a 46bd 1532 79bd e431 4b3c
0.034366444 -0.038976375 -0.0098338025 -0.034080885 0.1818862 0.0027690476 0.04100814 0.01998229
-0.065870546 -0.14846568 -0.031535294 -0.06682804 -0.18828253 0.0931716 -0.066866964 -0.044635944
0.16508198 -0.058475737 0.011907585 0.041611437 0.08764212 0.01547155 -0.052329727 0.11389268
-0.20771863 -0.3189261 -0.1736522 0.1953377 0.14046809 -0.032843973 0.13819519 0.025713695
-0.024580473 0.01654755 -0.14016612 0.015800752 0.12815665 0.14506958 0.04443626 -0.01034115
0.085126914 0.039077017 0.0021693248 0.13107102 0.035675827 -0.105810575 -0.18855931 0.050823797
-0.0047849016 -0.10552668 0.048110448 0.02185019 -0.19702856 -0.058591973 -0.012267498 0.21706143
-0.3632902 -0.10315778 0.22116119 0.05881533 0.15524326 -0.008187903 0.16940175 -0.022485087
0.14355741 0.013412996 -0.09940602 -0.011743716 -0.1315813 -0.17156507 0.114633285 -0.11530633
0.03129835 0.1634329 -0.0014738939 -0.07350887 0.0061520403 0.03394239 0.024803597 -0.045502204
0.27069598 -0.06065059 -0.17981684 -0.0065814005 0.15045245 0.15215538 -0.07306649 -0.010709943
-0.056029268 0.122374505 -0.020784736 -0.029818542 0.14229622 0.1850872 0.19388708 0.0007550266
0.12750325 0.060197033 -0.043515056 0.022759672 0.036207166 0.0153408125 -0.12327427 -0.019835567
0.106880516 0.056015626 -0.121623725 0.04370682 -0.031468168 0.16100623 -0.043883443 -0.007298879
-0.16999885 -0.09119218 0.042583134 0.055680122 0.0019363505 0.099569894 -0.08372771 0.17560479
0.09297742 -0.15614589 0.07621873 0.06959253 0.13303165 -0.008415683 0.024704216 0.07026552
0.09487883 0.08161817 0.1331318 0.14965402 -0.096036166 0.2549849 0.072369084 0.12781075
-0.25280672 -0.26009387 -0.13149153 0.17870939 0.106377594 -0.069842294 -0.12570678 0.08620528
0.08107726 0.0046385224 -0.06943859 -0.08946183 0.054037407 0.023392422 -0.00948694 0.011008429
-0.019093726 -0.14953202 -0.09131503 0.09449942 0.042674262 0.0075025223 -0.117411144 -0.03435645
-0.28704786 0.017042227 0.14322104 0.013429799 0.05901348 -0.23619229 0.08403182 0.017023213
-0.0092711225 0.034921255 -0.09384047 -0.16557714 0.13430579 0.1586477 -0.05523634 0.21104147
-0.23400103 -0.04875511 0.12316306 0.11541146 0.086359315 0.032725874 0.021732481 -0.077816986
-0.031618968 0.07136124 0.102994904 0.053039998 0.034967672 -0.04417859 0.061856594 -0.060732823
0.10555226 0.060203146 -0.07875153 0.19759269 -0.17257148 -0.27406585 0.033244047 0.006276558
-0.046069592 -0.062868096 -0.023423033 -0.030851824 -0.056745276 -0.010923156 -0.0032360454 -0.06828802
-0.19821644 -0.0025003466 -0.37060404 0.032285437 0.19586197 0.029152384 -0.28766927 -0.010449587
0.12646031 0.08270054 0.06723169 -0.09152562 -0.24214844 -0.004860949 -0.14520545 -0.02483375
0.006580412 -0.10990599 -0.06475643 -0.042811103 -0.021444743 0.014745226 -0.23513581 0.024181344
0.027238408 0.075743996 0.014711459 -0.15724641 -0.02515564 -0.0059404434 -0.010090923 0.17446455
0.18089715 -0.084260024 -0.10439472 0.13387814 0.0034071796 0.0034189434 0.10587424 -0.092679664
-0.1712909 -0.012947074 -0.1214606 -0.056638677 0.067477025 -0.048456203 -0.060838778 0.012402032

conv_block2.0.bias f4 [32]
00000000: 1f7c 27be 0455 68be 1d0d 783d b902 6bbe
00000010: 3332 093e a66d c9bc 4078 b6bd 8558 92bd
00000020: 359b 953c f668 a83d d9ac 4bbe 9b61 4dbe
00000030: bfb4 4abd ac9f 6abe 832a 083d 08bb 343e
00000040: 17ec 61bc afe0 e23d 8ca0 083e a980 91bb
00000050: 38a6 b0bd 7748 9cbd cba6 113d f12e 7dbe
00000060: 1759 88bd d050 443e 4a00 cc3d 64a1 3f3e
00000070: 1d4c 2e3d 6675 f2bd 9e8b 96bd 571f 9fbc
-0.16355942 -0.22688681 0.06055938 -0.22950257 0.13398056 -0.024588417 -0.089096546 -0.0714579
0.018262485 0.08223145 -0.19890155 -0.20056765 -0.04948878 -0.22912472 0.033243667 0.17649472
-0.013789198 0.11078011 0.13342494 -0.0044403863 -0.08625454 -0.07631009 0.035559457 -0.24724938
-0.066576175 0.19171453 0.09960993 0.1871391 0.042553056 -0.11838798 -0.073508486 -0.019424124

conv_block2.1.weight f4 [32]
00000000: a91b 743f b506 573f 0c8f 8b3f 0f5a 643f
00000010: 0816 8d3f 13de 813f 0c53 543f d3dc 883f
00000020: d66c 673f 3243 643f 90a4 7f3f 2dc6 623f
00000030: 2072 633f f266 6e3f 80f9 a73f daec 3b3f
00000040: f1f1 8b3f 6460 4f3f ae9c 413f 1e6a 9b3f
00000050: 3e81 843f 047b 423f 84d9 9b3f c440 b43f
00000060: 910d b03f 386e 5e3f 4d0d a63f 79dc 3e3f
00000070: ffdf 7d3f 17b7 853f e502 8a3f 86ed 533f
0.95354706 0.8399461 1.090303 0.8919992 1.1022348 1.0145897 0.8293922 1.069239
0.90400445 0.8916503 0.9986048 0.8858364 0.88846016 0.9312583 1.3123016 0.7340828
1.093321 0.81006455 0.756297 1.2141759 1.0351942 0.75968957 1.2175756 1.4082265
1.375414 0.8688693 1.2972809 0.74555165 0.99169916 1.04465 1.0782133 0.82784307

conv_block2.1.bias f4 [32]
00000000: 470c 4cbe ef45 bebe e2ec 81bd 442d 76be
00000010: 03c5 f8bd 9d5e 11be bf19 21be 2c13 d83b
00000020: ea16 59be c1ad 50be 6e27 a1bd 2a43 e6bd
00000030: a654 1abe c7a6 31be 9af9 0ebe da90 ffbe
00000040: 6064 4cbd 87ef 65be 9066 60be 3981 2ebe
00000050: 1087 bebd e180 9dbe 91e5 2dbe b7cb f5bc
00000060: e5da 733d efad 92be 8feb 19be b3be 7dbe
00000070: 206c 3cbe 7bd0 463d 3bab c83d a29c 26be
-0.19926558 -0.3716273 -0.0634401 -0.24040705 -0.12146952 -0.14196248 -0.15732478 0.0065940823
-0.21200147 -0.20378782 -0.07868849 -0.11243279 -0.15071353 -0.17348777 -0.13962403 -0.499152
-0.049900413 -0.22454654 -0.21914124 -0.17041482 -0.09303105 -0.3076239 -0.16982104 -0.030004365
0.059534926 -0.28648326 -0.15031265 -0.24779777 -0.18400621 0.048538666 0.097982846 -0.16270688

conv_block2.1.running_mean f4 [32]
00000000: b540 eabd c8dd 8f3e b451 f0be 69ee b63d
00000010: 4a84 85be 7999 0fbf db0d 00be 023f 3ebf
00000020: bcdd 5a3f 2bc4 1a3f 9bba 32bf 8b27 dd3d
00000030: 8648 1ebf 3da9 803d 3fc2 dbbe 3247 e73f
00000040: 5528 8cbe 1c3a adbf 454e 48bc 0a7f c1be
00000050: 4d0d 35bf dca4 8ebf 1a92 01bf 37e1 98bf
00000060: 482c 31bf 1c64 bb3e da3f 3ebf 479e d53d
00000070: e754 64bc 0cd5 3cbf 8495 9abe 12af a43d
-0.11438123 0.28098893 -0.46937335 0.08932192 -0.2607749 -0.56093556 -0.12505285 -0.7431489
0.8549459 0.6045558 -0.6981599 0.10798558 -0.6182941 0.0628228 -0.42921636 1.8068602
-0.2737452 -1.3533359 -0.012225692 -0.37792236 -0.7072342 -1.1144061 -0.5061356 -1.194373
-0.6920819 0.36599815 -0.7431618 0.1043058 -0.013936258 -0.73762584 -0.30192196 0.080412045

conv_block2.1.running_var f4 [32]
00000000: f620 e03e 672b e63e 51b7 4e3f a66a dd3e
00000010: 4823 253f b036 533f f8ef 643e 580b 8d3f
00000020: 9922 143f 497c bf3e 5622 b73f 644b 093f
00000030: e2b9 4b3f 6aa9 e83e fde7 4c3f dc5b 9f3f
00000040: 082f 643f 30fd 8040 5570 a03f f7a2 db3e
00000050: 9673 483f fd89 1040 75f2 8a3f 5171 a93f
00000060: 2070 1f3f b5a3 c53e 7e30 6c3f 566d 893f
00000070: f8ff 213f 68b0 f13e 682d dc3e 249d 5d3e
0.43775147 0.44954988 0.8074847 0.4324543 0.6450696 0.8250532 0.22357166 1.1019087
0.5786529 0.3739951 1.4307353 0.5363066 0.7958051 0.45441753 0.80041486 1.2449908
0.89134264 4.0309067 1.2534281 0.4289777 0.7830137 2.2584221 1.0855242 1.3237706
0.62280464 0.3860146 0.92261493 1.0736492 0.632812 0.472049 0.43003392 0.21641976

conv_block3.0.weight f4 [64, 32, 5]
00000000: 60b2 aabd b6c8 593c a1c0 543b cc48 113d
00000010: 1b52 8b3d 2cd4 dcbd 97e4 c1bd f920 e0bd
00000020: f69f b43d 02ae 103b 67b9 3fbe 64e9 24bd
00000030: 5a42 7abd ea5e 0f3e 3b84 df3d e394 41bd
00000040: 5e19 f53d 3141 fcbd 4c53 c7be 5c8e 86be
00000050: bec4 033e bc58 b33d 44cc c7bd d623 e13d
00000060: eaf8 82bd e2ff 29be b8b2 9f3d fe15 813c
00000070: 1740 a8bc 1194 44be 6bef 87bc 2359 f33d
00000080: 879a ed3c ef7b 883b 6def d23d 5d92 e1bc
00000090: 4255 993d a847 f2bc 538e 8cbc b12c 9d3d
000000a0: cbfc 233e 2691 f33c d336 193e a60a 26be
000000b0: 55bd 4abe 9153 4cbe 5809 2f3e 29c5 0a3d
000000c0: 2ca0 0dbd 516a c6bd e060 a33d c83b 9bbd
000000d0: 944f 9a3c 6e18 513b 1900 7d3e 18d0 a53d
000000e0: de2d a33d 952b 743d e83d 09bd f311 83be
000000f0: b961 41bd fb8e 12bc bfd5 15bd 3eb3 babc
00000100: b81a d9bd 6fb0 b43d a268 89bd 22d8 aabd
00000110: dab7 d9bd dffd bcbc c4b7 c33b 4829 303d
00000120: 55cb 213e 0197 723e c2bb 34be 058f ec3d
00000130: a62e 203d 7474 58bd 5210 99bd b8ba 00bd
00000140: 2a28 55bc 27a3 f53c dae9 33bd 5304 3dbd
00000150: b3cf 673e a6da 843d e7d3 043e c73f 6e3d
00000160: fcb8 d1bd f469 a4bd 948a 49be 186d c1ba
00000170: c4de c2bb 3540 343d b8cc d739 bcd4 0b3e
00000180: 3354 613e f58f 063e fa75 033e 4d1b 80be
00000190: fb54 433e 8028 56be 20d1 a03d 71ec 44be
000001a0: fd79 1cbe 7459 96bd 0f39 683d 6d3f d8bd
000001b0: 99de 73bc 879d 1bbd 0643 b23e b8bc 40bd
000001c0: 1574 4b3e c819 edbd 2a1b ae3d 3ccb 80be
000001d0: e6f3 e03b c2d2 8cbd 2f60 373e ba81 0c3e
000001e0: c2a3 ff3c ec2b 453d 36b5 153d e963 34be
000001f0: a0af 6bbe f629 883d 5fdc 06be fd62 933d
00000200: 1ab1 48bb bf74 543d ddaf 16be cb96 1c3e
00000210: 4086 a0bd 002f 2c3e 11e5 67bd 1e59 25bd
00000220: e4ab bdbd cd21 fbbd 0734 e23c abbd 903d
00000230: e632 b23d e153 a63e 81d2 3e3d f90c ae3d
00000240: 4769 57be eb23 123e b0bd 72bd 1bb5 1b3c
00000250: c8a9 0fbe b566 793b 962f 303e ec81 173d
00000260: 87c1 59bd ab83 cabc 0db9 1d3c f70e 143c
00000270: 672d 0eba 455c 813c e66b efbd 90e5 07be
00000280: a706 283d c610 c0bb 9560 82bd cdf7 a73c
00000290: eb4b 50be fe55 72bc 83de 083e c4b0 763d
000002a0: add6 59be 6d63 983d 6afb 063e c077 cabd
000002b0: a44f cfbb 2b18 69bc 684d b03c ad76 723d
000002c0: daca b73d 0440 673d 965b 8dbd d34e acbd
000002d0: c50e 1cbd 88b5 783d 27e9 083d 0f2e 16be
000002e0: ca03 b7bd 712c 813d 4a2f 67bd f452 1f3d
000002f0: 905e 1a3c bbca 95bd 2ffc 583d 3acb 72bd
00000300: 212f 6c3d 4697 99be 0e9f 023e 0335 2b3e
00000310: cc82 1cbe e56e 13bd 17d1 1a3e ce9d 4fbe
00000320: e910 513e 80b3 b9bb f3c3 b7bd 0c12 d23c
00000330: 7e59 353d 8218 463d 72fe b63d 6b03 09be
00000340: b456 cb3d e471 57be aa3b a4bd 0462 0c3d
00000350: 2c33 de3c c66a 98bd fee4 46bd de53 d43d
00000360: 33a6 c9bb 2a46 803c 29a0 77bd 3739 40bc
00000370: d7f3 ffbc eea6 da3c a09a fd3b 2974 51be
00000380: 0f4a 04ba 03dc 91bd 1e40 9ebd 4a99 c4bd
00000390: f475 4fbd 8270 1e3d 98ae 8ebe ab50 16be
000003a0: 3cfe 463e 13e1 233c 0b56 893d 28fc a43b
000003b0: 0ec8 dc3b ee80 61bd 0c74 16be 579d f03d
000003c0: 726e 08be 97de a9bc 745c 10bd cbf5 56be
000003d0: cdb8 dc3d f4a6 ce3c 58e3 25bd 4d95 52bd
000003e0: 20a0 abbd 0bfd 3ebd 4163 e33c b405 fe3d
000003f0: 94d5 6b3d 0c2f f6bd cff7 57bb 17f8 ea3d
-0.083348036 0.013292482 0.0032463449 0.035469815 0.0680277 -0.10782656 -0.09467428 -0.10943789
0.08819573 0.0022076373 -0.18723069 -0.04026164 -0.061098434 0.1400105 0.10913893 -0.04726113
0.11967729 -0.12317122 -0.38930738 -0.26280487 0.1286802 0.08757159 -0.097557575 0.10993163
-0.06395133 -0.16601518 0.0779776 0.015757557 -0.020538373 -0.19197108 -0.016593656 0.11882236
0.029004348 0.0041651647 0.10299573 -0.027535612 0.07486965 -0.029575184 -0.01715771 0.0767454
0.16014402 0.029732298 0.1496232 -0.16215 -0.19798787 -0.19953753 0.17093408 0.033879433
-0.03457658 -0.09688247 0.07977462 -0.07579762 0.018836774 0.003190543 0.24707069 0.08096331
0.07967733 0.059611876 -0.033506304 -0.25599632 -0.047212336 -0.008945222 -0.036580797 -0.022790547
-0.10600799 0.088227145 -0.0670941 -0.08342005 -0.1063077 -0.023070274 0.0059728343 0.04300812
0.15800221 0.23690416 -0.17649749 0.11550716 0.039106987 -0.052845433 -0.07473816 -0.03142807
-0.013010064 0.029985024 -0.04392419 -0.046146702 0.22637825 0.064870164 0.1297146 0.05816629
-0.10240361 -0.080280215 -0.1968177 -0.0014757244 -0.005946966 0.044006545 0.00041160523 0.1365537
0.22004776 0.13140853 0.12837973 -0.2502083 0.19075386 -0.20913887 0.078523874 -0.1923082
-0.1528091 -0.073412806 0.05669504 -0.105589725 -0.014884614 -0.037992027 0.3481676 -0.047054976
0.198685 -0.11577183 0.08501275 -0.25155056 0.0068650125 -0.06876136 0.17907785 0.13721362
0.031206015 0.04813759 0.03654977 -0.17616238 -0.23016214 0.066486284 -0.13170002 0.07196615
-0.003062314 0.05186915 -0.14715524 0.15291898 -0.07838106 0.16814804 -0.05661494 -0.040368192
-0.09261301 -0.12262306 0.0276127 0.07067426 0.08701114 0.3248587 0.04658747 0.08498568
-0.21036254 0.14271514 -0.05926293 0.009503628 -0.1402961 0.0038055603 0.17205653 0.036989138
-0.053163078 -0.024720987 0.009626639 0.009036771 -0.00054236356 0.015791068 -0.11690502 -0.13271165
0.04102197 -0.0058613745 -0.06366078 0.020503903 -0.2034146 -0.01479101 0.13366131 0.06022717
-0.21273299 0.07440839 0.13181844 -0.09886122 -0.0063266326 -0.0142269535 0.021521285 0.05919521
0.08974238 0.056457534 -0.06902234 -0.08413472 -0.038100023 0.060719997 0.033425476 -0.14666007
-0.089362696 0.06307305 -0.056441583 0.03889747 0.0094219595 -0.073140584 0.052974876 -0.059275843
0.057662133 -0.29998225 0.12755987 0.16719441 -0.1528427 -0.03599443 0.15118824 -0.20275041
0.20416607 -0.00566715 -0.08972921 0.025643371 0.0442748 0.048363216 0.0893525 -0.1338021
0.09928647 -0.2103954 -0.080191925 0.034273162 0.02712401 -0.074422404 -0.048558228 0.10367559
-0.0061538457 0.015658457 -0.060455475 -0.011732391 -0.031244202 0.026690926 0.00773938 -0.20454468
-0.0005046436 -0.07122042 -0.07727073 -0.0959955 -0.0506496 0.038681515 -0.2786758 -0.1467921
0.1943292 0.010002392 0.067058645 0.005034942 0.0067377156 -0.055054598 -0.14692706 0.1174876
-0.13323382 -0.020736022 -0.03524442 -0.209922 0.107774355 0.025226094 -0.040500015 -0.051411916
-0.08380151 -0.04662804 0.027757289 0.124034315 0.05757673 -0.12020692 -0.0032954102 0.11473101

conv_block3.0.bias f4 [64]
00000000: 89dc 2ebd 98fa 99bd e508 8c3d 8f62 143c
00000010: a735 3dbd 6ed8 063d 705a 523e 0e00 533c
00000020: 3c63 413e 3645 0abe d86f 243d 8c58 e2bd
00000030: 1d16 b1bd fabb d73a 5a9b 24be f28c 393d
00000040: 0d96 ce3d aa8e e03c 6581 ac3d f470 163e
00000050: ffc4 ffbc 3e34 4abd 0892 d23d 6f10 12be
00000060: 417b e73d 8de7 50bd b470 0cbd 0bd4 9bbd
00000070: 9b28 15be e4e4 633d d3fb e23d d4d0 883d
00000080: ed32 48be 7795 f2bd a5c4 e23c f84e a03c
00000090: 565f 9d3c 22af fd3c 068c 823d ac12 92bd
000000a0: e0ce c13d 75f5 94bd 2602 66be 0723 c0bc
000000b0: e94e d43d 6f30 793d f5b1 9cbd b3cd eebc
000000c0: 0d8c 0dbe 239d 01be 6036 933d 8795 e03d
000000d0: d19b 4c3e 078c 463d 25ef 10be a496 f93d
000000e0: 8c2b ca3d 747d 303d 6069 d9bc 226c 42bd
000000f0: 18c0 103c 4c07 62bc 52a1 4cbe 0d53 b93d
-0.042690787 -0.075185 0.06837634 0.009056701 -0.046193745 0.032921247 0.20542312 0.012878431
0.18885511 -0.13502964 0.040145725 -0.11052045 -0.08646796 0.001645922 -0.16074887 0.04530043
0.10087214 0.027411778 0.084231175 0.14691526 -0.031221865 -0.04936623 0.102817595 -0.14264081
0.11302806 -0.051002074 -0.03428717 -0.07608803 -0.14566271 0.05563821 0.11083188 0.06680456
-0.19550677 -0.118449144 0.027681658 0.019568905 0.019210499 0.030967299 0.063743636 -0.07132468
0.094632864 -0.0727338 -0.22461757 -0.023454202 0.103666134 0.060837205 -0.0765113 -0.02915082
-0.13822956 -0.12657599 0.071881056 0.1096602 0.19981314 0.048473384 -0.14153726 0.121869355
0.09871587 0.04308839 -0.026539505 -0.047466405 0.008834861 -0.013795685 -0.19983414 0.09049044

conv_block3.1.weight f4 [64]
00000000: dd3e 763f 0d65 883f bed6 6e3f bc8a 833f
00000010: e352 943f 7ca2 803f ef5b 7c3f 668a 723f
00000020: 1c9a 753f db3f 6a3f 4cf0 7a3f 28cd 813f
00000030: 2ac8 853f f14b 783f 4a10 733f 3dfb 6d3f
00000040: cdbe 8f3f 134f 573f cdec 853f 82de 6a3f
00000050: 4273 703f 6e06 643f ca56 6c3f 4383 6c3f
00000060: cc02 7c3f 0268 793f 5082 6a3f 8ba4 7b3f
00000070: 7df1 8e3f 6feb 713f 0484 863f cf65 8d3f
00000080: 22fa 853f 72c9 5c3f 35da 6a3f bc01 333f
00000090: 6099 8b3f 8851 973f b44e 833f 9d15 6d3f
000000a0: a243 613f 41e2 503f ac9e 893f b65a 7d3f
000000b0: a8cb 7e3f 5b7f 6b3f bf9e 843f 14e1 823f
000000c0: d129 833f 35cc 693f 2b7b 703f 11dc 7a3f
000000d0: 3e6b 873f 3914 743f 3246 7e3f 029b 743f
000000e0: 8bca 8f3f 34d7 853f 269e 8b3f bf9b 7e3f
000000f0: 7d5e 903f 227d 843f 41cb 8a3f 9afb 743f
0.9618967 1.0655838 0.9329642 1.0276713 1.1587795 1.0049586 0.9857778 0.9474243
0.9593828 0.91503686 0.98022914 1.0140734 1.045171 0.9699088 0.9494673 0.92961484
1.1230103 0.8410503 1.0462891 0.9174577 0.9392587 0.8907231 0.9231993 0.9238779
0.9844177 0.9742433 0.9160509 0.9829795 1.1167446 0.9449987 1.0509038 1.1046695
1.046696 0.8624488 0.9173921 0.6992452 1.0906181 1.1821756 1.0258393 0.92611104
0.87993824 0.81595236 1.0751548 0.9896654 0.99529505 0.91991204 1.0360945 1.0224938
1.0247136 0.9132722 0.9393794 0.97992045 1.0579603 0.9534336 0.9932586 0.95549023
1.1233686 1.04563 1.0907638 0.994564 1.1278836 1.0350688 1.0843278 0.95696414

conv_block3.1.bias f4 [64]
00000000: cad0 cdbe ef5c 39be 42e4 96be 90dc 0cbe
00000010: 6bd5 60be e1b8 a8be fada 8cbe 63cf 18be
00000020: 93c1 bcbe b254 7dbe a1db 60be 8c96 06be
00000030: 4cf6 19be fd78 41be 6b9d f4bd 570e febd
00000040: 2706 15bd 25d5 b7be 2f10 b6bd 10df 00be
00000050: 1817 1bbe 231b 83be 588c 53be 10c5 a9be
00000060: d87a 0dbe 0997 85be d8a1 14be 4b3e 73be
00000070: f31f d0be 5c17 8ebe caaa 0e3d 321a b2be
00000080: 7eab a0be 7f02 53be 339d 8fbe 2f75 a8be
00000090: 6ab0 62be 00cf fdbd cc45 c1bd 3f9e a6be
000000a0: 14b5 0bbe b87c c0be b54b 3cbe 6c36 8dbd
000000b0: 0da0 b9be aa3f 7ebe 41df 7bbe 4e66 72be
000000c0: 46c0 3dbe d44f 43be 3c01 f8bd d497 49be
000000d0: 1b4b 61be 8fce 83be c1ae b1bd a641 2cbe
000000e0: 8fdf 46be 9380 dd3a e1d5 b4be 9c0d 87bd
000000f0: a892 86be b6ff 5cbe 916e c73d 2fd1 44be
-0.40198356 -0.18101858 -0.29471022 -0.13756013 -0.21956412 -0.3295355 -0.27510816 -0.14922862
-0.36866435 -0.2473934 -0.21958782 -0.13143367 -0.15035361 -0.1889381 -0.119440876 -0.12405079
-0.03638282 -0.35904804 -0.088898055 -0.12585092 -0.15145528 -0.2560664 -0.20659006 -0.3315816
-0.13816392 -0.26091793 -0.14514863 -0.23754232 -0.40649375 -0.27752197 0.034830846 -0.3478561
-0.31380838 -0.20606421 -0.2804962 -0.32901904 -0.22137609 -0.12392998 -0.09437141 -0.32542607
-0.13643295 -0.37595153 -0.18388255 -0.06895146 -0.36254922 -0.24828973 -0.24596883 -0.23671839
-0.18530378 -0.19073421 -0.121096104 -0.19686824 -0.22001307 -0.2574353 -0.0867591 -0.16821918
-0.19421218 0.001689928 -0.35319427 -0.06594393 -0.26283765 -0.21581921 0.09737886 -0.19220422

conv_block3.1.running_mean f4 [64]
00000000: 3b38 bcbd 2a35 1ebf f3de 12be 85d2 b1bf
00000010: 5e92 bbbf abae 703f 88c8 7cbd 31d5 e1bd
00000020: 8caa a33e d498 b2be f023 68bf 19a2 f5be
00000030: 1539 4fbf 5980 3cbf 9397 4c3f 944c 4b3e
00000040: 5392 60bf 2a4a 88be 8ebd 8cbe 1d7f 893e
00000050: 52f1 a6be 1108 9e3e fcca f63e a817 c4bc
00000060: 4c0c 483f a2ae 163f 2000 56bf a0ba 9bbf
00000070: 3afc 18bf 3fc7 b43f 3e91 35bf 8d7d d4bd
00000080: e033 e1bc e12f 93be f520 07bf 787f 3cbf
00000090: 06f9 bcbe d90b c9be 93ed 7fbf 0183 4fbf
000000a0: 4d9a abbd 2ba5 243f 2cd0 80bf 4c67 92bf
000000b0: 8725 2cbf 4c81 9dbd f280 acbf 3ca1 84bf
000000c0: f511 67bf 36ae 65bf 3104 4dbf 6c4f 8dbe
000000d0: 0854 bf3e 1453 503e 40b3 59bf 6056 923d
000000e0: 2f19 bdbe 1a51 4fbf cb23 1e3f 8bb5 75bf
000000f0: 8b6c 8dbf ea93 fe3e 6ae8 3ebf 5b07 82be
-0.091904126 -0.6179987 -0.14342861 -1.389237 -1.4654043 0.9401652 -0.06171468 -0.11026991
0.31966054 -0.34882224 -0.90679836 -0.47975233 -0.80946475 -0.73633343 0.79918784 0.19853431
-0.87723273 -0.26619083 -0.2748837 0.26854792 -0.32605988 0.3086553 0.4820174 -0.023937061
0.78143764 0.5886022 -0.8359394 -1.2166328 -0.5975987 1.4123305 -0.70924747 -0.103755094
-0.027490556 -0.28747466 -0.52784663 -0.73632 -0.3690874 -0.39266852 -0.99971884 -0.8105927
-0.0837904 0.64314526 -1.0063529 -1.1437774 -0.6724476 -0.07690677 -1.3476851 -1.0361705
-0.90261775 -0.8971895 -0.8008452 -0.27599657 0.37368798 0.20344192 -0.8503914 0.07145381
-0.36933276 -0.80983126 0.61773366 -0.9598014 -1.104875 0.49722224 -0.74573386 -0.25396237

conv_block3.1.running_var f4 [64]
00000000: ffa5 1e3f f390 a83f c03e 563f c152 bd3f
00000010: 627d a83f c73a 753f 629d 9b3f 9aeb 9b3f
00000020: 27d5 733f 673a 883f 2c5b 763f 6e47 403f
00000030: e26f 863f 141b 843f cb18 233f 4191 263f
00000040: 81b1 a53f 4292 ff3e 90b8 913f 1ed3 0c3f
00000050: 14d6 7a3f 145c 3b3f bbd1 763f 8297 3a3f
00000060: e8a3 f13e 9036 f63e cc15 1a3f 5b08 ad3f
00000070: 93e8 033f 3f68 2a3f 0e7f 9c3f 0099 2b3f
00000080: 413c 123f 05eb 673f c5a5 3d3f 1944 c73f
00000090: 20d6 3a3f 0050 823f eaae bb3f 1bb3 7e3f
000000a0: 1fcd 313f 0f3b 213f 27db da3f f614 c43f
000000b0: afb0 5f3f ddb4 313f 1256 483f 04b3 d73f
000000c0: 4726 a23f caba 283f e966 d83f 6b58 7b3f
000000d0: 3958 643f 34f6 a43f f1fd 8c3f d639 333f
000000e0: 9113 873f d86d ba3f 7513 5a3f 326a 963f
000000f0: 72c6 a13f 9875 5f3f e123 a03f 6945 403f
0.6197204 1.3169235 0.836895 1.479088 1.3163264 0.9579281 1.2157404 1.2181275
0.9524712 1.0642823 0.9623287 0.75108993 1.0502894 1.0320764 0.63709706 0.6506539
1.2944795 0.49916273 1.1384449 0.5500964 0.9798291 0.73187375 0.96413773 0.7288743
0.47195363 0.48088503 0.6018951 1.3518175 0.51526755 0.66565317 1.2226274 0.67030334
0.5712319 0.90592986 0.7408107 1.5567657 0.7298298 1.0180664 1.4662755 0.99492043
0.69453615 0.6298074 1.709813 1.5318897 0.8737897 0.694166 0.7825633 1.6851506
1.2667931 0.6591002 1.6906406 0.9818179 0.8919712 1.2887635 1.1014997 0.70010126
1.0552846 1.4564772 0.8518594 1.1751158 1.2638686 0.8728881 1.2510949 0.7510591

conv_block4.0.weight f4 [128, 64, 3]
00000000: 07b4 173e 49ef e13d 196a 06be ca0c 45be
00000010: eafc 85be e6b7 debd 6c6f 63bc d2ff 513d
00000020: 2cd4 bdbb e7c0 9ebd 759c ee3d 4e00 263e
00000030: e44f 76be 43cd 2f3c 7741 d63d 3569 6fbd
00000040: 6f95 21be 5767 17be 2951 063e 6a20 293d
00000050: 9cca cc3d 49be 8c3d 1607 b4bc 1990 05bc
00000060: f729 c9bc 5f47 9abd d190 9bbd 9f3f 04bd
00000070: 2da3 93bc f039 823d 027d abbd e72f 0d3e
00000080: f206 2b3e 84ed 3eb9 7ed3 cabc 6698 993c
00000090: 1893 17be 3c36 3239 3406 68bc 6b41 643e
000000a0: b6e9 443d b790 cfbc 9aca 23be 7adf acbd
000000b0: f5de 413d 575e 86bd 0e13 aa3d 8686 01bb
000000c0: 22d5 2f3d 18d4 c4bd 7249 5abe 526a 063e
000000d0: 2d6d bebd 9cca 3ebd 28c8 78bd 9a23 21be
000000e0: 3611 a13b f64e 0bbe 3db1 8ebd 141a 2a3d
000000f0: 27ad be3c cd16 ce3d 7a6d ba3d 8d33 21bd
00000100: 314f b53c 1100 083e ee7d f0bd 5633 debd
00000110: 5d4b 36bd 0000 aa3c 4b2e 383e 5f66 843d
00000120: edc7 923c b35a fb3c 5eaf 093d bc44 07be
00000130: 5ed4 32bc a6fc 85bd b575 c53d 387c 503d
00000140: dc4d 25bd 0eca c6bd 9ce0 b0bc d2dd 303e
00000150: d603 f9bd f25c 11bd d9f7 f53d bfe4 a3bd
00000160: eb5b 913b 6c2e 043e b911 41bc 17d2 fcbc
00000170: d59f 2b3d 0d21 023e ef84 5cbd 3979 32bc
00000180: f77b a43d e826 5a3c d4e0 c3bc eb92 213d
00000190: 7ac0 3b3d cd5e 09bd 12b4 b3bd 8691 e5bd
000001a0: b70c 183e 7b7f 093d d27a a33d 1a05 223e
000001b0: b301 213e 897b 2ebd 4c39 413e 5dca 113d
000001c0: d457 f5bd 3c18 85bd c34b d6bd cda3 543d
000001d0: 65e2 b2bd fb05 e13d 32ef 003e 23a2 80bc
000001e0: 7934 883c f0d2 a73d 89ad 0d3e 1e9b f03c
000001f0: f203 863d 16fe a5bd bccb 403e 3d5e 40bd
00000200: 3fb1 5b3b 374b 9dbb aa0c 86bd af9b 0bbe
00000210: 266b 88bd 419f 943d 97fb 71bc 74cb 113c
00000220: 0fad 8d3d 118b a4bb 07cd b3bd f5c8 01be
00000230: ff19 01be 4380 b7bb 46e6 7e3d d47c 22be
00000240: d510 543d 9a64 463e 01d3 b33d d37b 9fbd
00000250: 8b3b 273e 66d0 b43c dd85 aebc 6b14 d63c
00000260: 944e 41bc c3fe 90bc e2ca 823d 7a05 0b3e
00000270: e79a 253e 64c7 a33c 3661 bb3d e0d2 c13d
00000280: 8796 113e 1b0f 9e3b 4f76 7e3e 0565 203d
00000290: 4fc2 d0bd 115c c13d c2a9 a53d 7f49 1f3d
000002a0: 5c56 dabd a89a 02be 6cf1 3b3e e608 253e
000002b0: 214b 36bc 256a ad3d 341d 1c3e 1f54 03bd
000002c0: f430 22bd a3c0 c33d d31d e03c 3862 fb3d
000002d0: 6925 cd3d 7d78 2f3e b01e 63be 6cde a9bd
000002e0: 761e 3cbe b888 44bc 09fc 3cbd 8271 fe3d
000002f0: bd42 4e3d fb8b aa3d d01b f43c ad4d 0f3e
00000300: f1d8 d13d ae01 043e d4f2 8fbd ca61 53be
00000310: b31a f7bd 3314 03be 8e6a a43d cc2c 683d
00000320: cfe9 403d 10b2 27be 11d8 46bc a789 3a3e
00000330: db0a 61be 1d30 03bd 3042 513e 26c6 ddbd
00000340: 941d 46be 82f1 babd 33d5 d93d 023d 123d
00000350: c8ba 4f3e 612d eb3d 3d85 3d3d d8b3 0dbd
00000360: c955 86bd faf0 36be 12b2 1d3d 5423 8abb
00000370: 30de b03c 34b6 9d3d ab07 d9bd 0240 973c
00000380: de70 443e 2e65 593d 9d1e d03d 9163 973c
00000390: 3bfd 00be e4c5 8abd 96f0 ee3d 92d3 3e3e
000003a0: ff20 37bd 2997 0fbe 0bc1 9dbd 484e ddbd
000003b0: 0254 19bd fd74 e33d f8bb 3d3d 7ed5 b9bc
000003c0: de56 163e d6e2 bfbd bdca d9bd 6264 4a3e
000003d0: f9ce 0cbd 4d34 9fbd 0d7e 393c 18ec 56be
000003e0: 55a8 a93c e4db 10be 6f82 1abd d593 653d
000003f0: 8426 613b 0cd4 6cbc b6d4 213e 6b29 4f3c
0.14814769 0.11031968 -0.1312641 -0.1924316 -0.2616952 -0.108749196 -0.0138815455 0.05126936
-0.005793115 -0.07751637 0.116509356 0.16211054 -0.24053913 0.010730091 0.10461705 -0.058449943
-0.1577966 -0.14785515 0.13116898 0.041290678 0.09999582 0.068722315 -0.021976035 -0.008152031
-0.024556143 -0.07533144 -0.07595981 -0.032287236 -0.018022144 0.06358707 -0.08373453 0.13787805
0.16701868 -0.00018208293 -0.02475905 0.018749427 -0.14802206 0.00016995607 -0.014161635 0.2229058
0.048074447 -0.02533756 -0.15995255 -0.08441062 0.04733177 -0.06560963 0.08304416 -0.001976402
0.04292787 -0.09610766 -0.2131708 0.13126495 -0.092981674 -0.046579942 -0.06073776 -0.15736237
0.004915382 -0.1360434 -0.06967399 0.041528776 0.023275925 0.10062943 0.09102912 -0.039355803
0.022132488 0.13281275 -0.11742769 -0.10849635 -0.044505466 0.020751953 0.1798641 0.06464838
0.017917598 0.030682897 0.03361451 -0.13209814 -0.01091489 -0.065423295 0.096415915 0.050899714
-0.040357456 -0.097065076 -0.021591477 0.17272118 -0.12158935 -0.03548903 0.12010164 -0.08002614
0.0044360063 0.12908334 -0.011784011 -0.030861897 0.041900475 0.1270792 -0.053837713 -0.01089316
0.08031457 0.01331494 -0.023910917 0.039446753 0.045837857 -0.033537675 -0.0877458 -0.11209397
0.148486 0.03356884 0.079824105 0.15822259 0.15723304 -0.04259828 0.18869513 0.03559338
-0.119796425 -0.06498763 -0.10463669 0.051914025 -0.087345876 0.10987469 0.12591246 -0.015702313
0.016626583 0.0819453 0.1383573 0.02937084 0.06543721 -0.08105104 0.18827718 -0.046964873
0.0033522395 -0.004800226 -0.06545384 -0.13633607 -0.06661062 0.07256938 -0.014769456 0.008898605
0.06917774 -0.005021461 -0.0877934 -0.12674315 -0.12607573 -0.005600007 0.062231325 -0.1586793
0.051773865 0.19374314 0.0878048 -0.077872895 0.16331308 0.022072028 -0.021304065 0.026132783
-0.01179852 -0.017699605 0.06386353 0.13576308 0.16172372 0.019992538 0.09149401 0.09464049
0.14217578 0.004823578 0.24849819 0.03915884 -0.101933114 0.094413884 0.08089019 0.03888845
-0.10661003 -0.12754309 0.18353814 0.16116676 -0.011126311 0.08467511 0.15245515 -0.032062646
-0.039597467 0.09558227 0.027357971 0.12274593 0.10016901 0.17135806 -0.22179675 -0.08294377
-0.18370995 -0.011995487 -0.046138797 0.12423994 0.050356615 0.083274804 0.029798418 0.13994475
0.102464564 0.12891266 -0.07028738 -0.20642772 -0.12065639 -0.12800674 0.08028136 0.056683347
0.047097977 -0.16376519 -0.012136475 0.18216573 -0.21976797 -0.032028306 0.20435405 -0.108288094
-0.1934722 -0.09128095 0.10636368 0.035702713 0.20286095 0.11483265 0.046269644 -0.03459534
-0.06559331 -0.17865363 0.0384999 -0.004215637 0.021590322 0.07700768 -0.10597166 0.018463138
0.1918368 0.053075008 0.10162089 0.018480094 -0.125966 -0.06776026 0.11666982 0.18635395
-0.044709202 -0.14022507 -0.07702836 -0.108059466 -0.03743363 0.11106298 0.04632184 -0.022684809
0.14681575 -0.093694374 -0.106343724 0.19764856 -0.034377072 -0.077736475 0.011321557 -0.209885
0.02071015 -0.14146382 -0.037722047 0.056049187 0.0034355232 -0.014454853 0.15803799 0.012644152

conv_block4.0.bias f4 [128]
00000000: a4d3 09bd 3385 f53c 6fed 6bbb 352b 493d
00000010: b87c 833d 4aac 5ebc 9a4f 58bd 8f33 e2bd
00000020: 2e03 84bd 2daa 80bd 360e 7a3d a293 f6bc
00000030: b10b 20bb 5a98 91bb 519e aebc 3c43 803d
00000040: d5cc a4bd 96f7 6abd 3ce5 063c a421 35bd
00000050: 8134 68bd b3a2 9e3d 3d0e 5c3d 18f0 8abd
00000060: b8e3 053d 861e 3d3d 1054 d43d ce63 a13d
00000070: 68c7 6ebc c3ba ed3c 7bb8 95bd ce08 6e3c
00000080: 10a3 bbbd 68e1 96bc 227e 033d a69f 8cbd
00000090: 8e64 8ebd 7841 c0bc 8fe4 e2bd bb16 023e
000000a0: ad54 43bd 58b4 ab3c 1071 003d 32f8 4d3d
000000b0: 682b cf3c 1efe 09bc d087 7ebd ef47 a6bd
000000c0: 6e2f 343d ce6e 9fbd 4fff 12b9 de84 0f3d
000000d0: e61c 59bd 2888 b4bd d5e3 05bb bb5d 933c
000000e0: 6fc7 f63c b6c0 913c 3f45 43bc 52bf 2ebd
000000f0: ba74 1d3c 0f20 cfbc 314c 09bb 2df1 c5bd
00000100: 84ae 803c 0edc 82ba 680e 253c dfce 54bd
00000110: 2444 173d 1066 71bd c971 b73d e10c 053d
00000120: 65f1 d7bc dab0 40bd e8a0 cf3c c98d c8bd
00000130: 4a1c dd3b e009 20bd f45a 0c3c 1ba1 98bd
00000140: 9022 b7bc 006a 9dbd 591a 1fbd 8802 eebb
00000150: 51eb 303d dfbc 823d 1525 40bd 54ca 40ba
00000160: 21c4 9fbd 436e 49bd dac2 50bd 7d3f 85bd
00000170: 46c4 873b d256 d63c efbd 9bbd efbf 44bb
00000180: 32d3 a7bd 6278 dc3d 94a7 47bd 8e05 33bd
00000190: 7d1b 26bc a6c8 a3bb 439c 9ebd b1c2 203d
000001a0: b03b 77bd 3a69 3abd fa52 bb3c 4f2b 70bd
000001b0: 787b 00bc 264c a7bc c31f 22bc 5342 c73c
000001c0: 4814 b2bc ea8c 903d 76bb 543c eb3d 863b
000001d0: fd63 63bd 0ff0 883d 3373 0a3d 8aa2 dfbc
000001e0: cd82 ec3b 01e4 84bc 1f97 1dbb 5293 713d
000001f0: 5467 303c 4832 b538 678a 963d 84eb 7ebd
-0.0336491 0.02997074 -0.0035999676 0.04911347 0.064202726 -0.013590882 -0.05281029 -0.1104499
-0.06445919 -0.062824585 0.06104871 -0.030099694 -0.002442103 -0.0044432105 -0.021315726 0.06262824
-0.08046881 -0.057365023 0.008233365 -0.044221535 -0.056690697 0.07745876 0.053724516 -0.067840755
0.032687873 0.046171688 0.10367596 0.07880364 -0.014573909 0.029019719 -0.073105775 0.014528466
-0.09161961 -0.018418029 0.03210271 -0.06866388 -0.06952773 -0.023468718 -0.1107875 0.12703983
-0.047688175 0.020960018 0.031357825 0.050285526 0.025289252 -0.008422403 -0.06214124 -0.08119189
0.043990545 -0.07784806 -0.00014018755 0.03503882 -0.053006075 -0.08815032 -0.0020429988 0.01798903
0.030124394 0.017792087 -0.011918365 -0.042662926 0.009610349 -0.025283841 -0.0020949955 -0.09665141
0.015708216 -0.0009983794 0.0100742355 -0.0519551 0.03693022 -0.058935225 0.0895725 0.032482985
-0.026360223 -0.04704366 0.02534528 -0.09792668 0.006747757 -0.039071918 0.008566607 -0.074526034
-0.022355348 -0.076862335 -0.038843486 -0.0072634853 0.043193165 0.063836806 -0.046910364 -0.0007354368
-0.078010805 -0.04917742 -0.050967075 -0.0650625 0.0041432707 0.026164446 -0.07604586 -0.0030021628
-0.08194579 0.10765149 -0.0487438 -0.04370647 -0.01013839 -0.0049982844 -0.07744648 0.039248172
-0.060359657 -0.045510508 0.022866715 -0.058635052 -0.007841937 -0.020422053 -0.009895268 0.024323618
-0.021738186 0.07058127 0.012984147 0.0040967367 -0.055515278 0.066864125 0.03380127 -0.027299184
0.007217741 -0.016222002 -0.0024046374 0.058978386 0.010766823 8.640118e-05 0.07350617 -0.062236324

conv_block4.1.weight f4 [128]
00000000: 45bf a73f 0fe0 b13f eef9 af3f 9903 b33f
00000010: bdc9 a83f 31fe aa3f 906f af3f 9346 bb3f
00000020: c662 ae3f 4972 ae3f f1e9 ad3f bb6b a73f
00000030: a59e b23f 3661 aa3f 59cb a83f cc18 ac3f
00000040: 1771 a93f 075c ae3f 8263 a43f c7b1 a93f
00000050: 6f3c ad3f c4aa ac3f 77d0 a63f ac72 b73f
00000060: d1bf a83f 5b49 b03f ebb5 b33f 5c5a b23f
00000070: f2e4 a23f e23e bc3f 3516 af3f 4ed9 b43f
00000080: 9173 aa3f aa1e b63f 2250 993f 244f a93f
00000090: 9ef4 b73f 8c61 a93f d69a a93f 7674 b53f
000000a0: df67 b23f 3499 ac3f 066f b43f bd60 ae3f
000000b0: 88e7 aa3f 69dd aa3f 070a ad3f 71af ab3f
000000c0: 2255 ad3f 1f4e b13f a8ad ab3f e1ef a63f
000000d0: 1233 ab3f 7436 ab3f 08c2 a63f 675f b23f
000000e0: 4319 aa3f 8af7 b03f 18da a93f ab9b af3f
000000f0: a1ad b03f 444a b03f e24f b03f 8e06 ad3f
00000100: 425b af3f 0146 ac3f 0a82 b93f d891 a83f
00000110: d6fa a73f 1ba0 b63f ca21 b43f 28d9 b13f
00000120: 9031 b23f 4066 a83f 0632 b53f 80bd b13f
00000130: 0deb af3f c243 ad3f 268e aa3f e8f2 ae3f
00000140: 225d ae3f 22f3 ae3f 54d1 a93f 97be af3f
00000150: 930e a83f 151b ae3f a978 b43f 5798 ae3f
00000160: 37a7 ae3f 9344 b33f 89f6 b33f ad36 b13f
00000170: ec00 aa3f 17ac 8c3f 5181 af3f 3d3c a93f
00000180: fc35 b83f 6f0b ad3f b187 ad3f 3185 ac3f
00000190: e9c4 a93f 6ae0 aa3f e45a b03f d05d ab3f
000001a0: 3914 ab3f b8e7 b43f 0fee a93f 5356 b03f
000001b0: 1574 aa3f d4f2 b03f 5aff ae3f b88f b23f
000001c0: 3e75 ac3f e85c b23f 2ec7 ab3f 1fab aa3f
000001d0: 7ba1 b03f 2f91 be3f 03f5 b73f c215 b03f
000001e0: 205e ac3f 2e82 ab3f cc65 b13f 221e b83f
000001f0: 02b6 ad3f b95e ae3f 10d9 aa3f b0f6 ab3f
1.3105246 1.3896502 1.3748147 1.3985473 1.3186566 1.3358823 1.3705921 1.4630913
1.3623893 1.3628627 1.3587018 1.3079752 1.3954664 1.3310916 1.3187057 1.3445067
1.3237637 1.3621835 1.2842867 1.3257378 1.3534068 1.3489614 1.3032368 1.433187
1.3183538 1.3772386 1.4039892 1.3933825 1.2726119 1.470669 1.3678652 1.4128816
1.3316518 1.4228108 1.197758 1.3227277 1.4371526 1.3232894 1.3250377 1.4176166
1.3937949 1.3484254 1.4096382 1.3623272 1.3351908 1.3348819 1.3518685 1.3412915
1.3541605 1.3851966 1.3412371 1.3041955 1.337496 1.3375993 1.3027964 1.3935364
1.3288959 1.3825543 1.3269682 1.3719381 1.3802987 1.3772664 1.3774378 1.3517625
1.3699725 1.3458863 1.449281 1.3169508 1.3123424 1.426761 1.4072812 1.3894396
1.3921375 1.3156204 1.4155891 1.3885956 1.3743607 1.3536303 1.332463 1.3667879
1.3622172 1.3667948 1.3267007 1.3730038 1.3129448 1.3602015 1.4099323 1.364024
1.364478 1.4005302 1.4059612 1.3844811 1.3281531 1.0990018 1.3711339 1.3221508
1.4391475 1.3519114 1.3557035 1.3478147 1.3263217 1.3349736 1.3777738 1.3388004
1.3365546 1.4133215 1.3275775 1.3776344 1.3316675 1.3824105 1.3671677 1.395011
1.347328 1.3934603 1.342016 1.3333472 1.379928 1.4888057 1.4371647 1.375664
1.3466225 1.3399103 1.3859191 1.4384196 1.3571169 1.3622657 1.3347492 1.3434658

conv_block4.1.bias f4 [128]
00000000: fc74 8fbb 534c f5bc ac48 7cbd 2a9a 70bd
00000010: e4ac 223b 4fda 91bc f090 5ebc bc35 ef3c
00000020: 558d d0bb fcf4 bdbc 5c27 b7bc 5b56 dbbb
00000030: 36e6 dc3c 40b4 5bbd 3df4 a1bd 3841 68bc
00000040: 02c7 e5ba 566d 8bbc 7353 76be 3aca b2bd
00000050: 00f9 f8bc 9402 9abc a66b 563b 4e88 0b3d
00000060: a3f6 5c3c 379b 00bc e0bf 13bc b4c8 353d
00000070: 6f3a afbd 1f21 523c c232 b2bb cb38 bfbc
00000080: 93c0 0a3d e8d5 d43c 1afa 81bd 4842 6fbc
00000090: 109a 16bc 8a90 5fbd e53d 523b 4161 0aba
000000a0: 2ae3 e3bb 9c19 bfbd 3667 213d 29e9 183c
000000b0: 4506 393c 9f20 9fbc 486a 17bc ffde d33c
000000c0: eefa 9dbc 58ab 1dbc 9ddb 013b 0e28 5b3d
000000d0: fd83 64bd b8eb 593b 55dc 08be 80d0 c0bd
000000e0: 587f 0c3d 1558 edbc 565d e8bb dccc 4f3b
000000f0: 0796 d0bc 993b 283c 1da8 c0bd a267 13bb
00000100: 5e70 19bd ea43 6fbc ef05 493d 69b0 e6bc
00000110: 46f0 bcbd a7ba 8fbd ae46 3d3b e1b9 0abd
00000120: 7f4d 62bd 6fa4 96bc e280 a63c 49c5 c5bd
00000130: fb23 d3bc b3a6 8dbb 98b8 a43c 2204 88bd
00000140: a780 c2bc f9bf 7fba e44c 423d c74b 77bd
00000150: da2e 9abc c545 af39 2095 dfbc 4823 763c
00000160: 93c5 d6bd 9205 943c be7c 8abd db0d c9bc
00000170: a863 973c adeb 3ebe cfcd 9dbc e4d1 d6bd
00000180: 4d82 473d f452 573c 68bd a43a c91e 22bd
00000190: 7d94 10bb 4c5f 16bb b47b 333c 08c3 7b3d
000001a0: 6a20 163d eb09 e53c 3035 afbb 2b2c 0b3c
000001b0: c6ff 03bd b481 e3bc 44a1 52bd a9d8 8bbd
000001c0: ea09 00bb b75b 18bd 02f0 aa3d 5928 a53c
000001d0: 17c9 9cbd 3bc3 b73c 7aa1 133c 817d 57ba
000001e0: e6f5 80bd 524f 20bd ccff 88bc 27d1 b43c
000001f0: fad8 f2bb 76b2 503a f325 303d 8f32 dabc
-0.0043779593 -0.02994362 -0.061592743 -0.058740772 0.002482229 -0.017804293 -0.0135843605 0.029200427
-0.0063645043 -0.023188107 -0.022357635 -0.006693644 0.026965242 -0.053638697 -0.07907913 -0.014175706
-0.0017530622 -0.017019909 -0.24055271 -0.08729978 -0.03039217 -0.018800057 0.0032717972 0.034065537
0.013486537 -0.007849506 -0.0090179145 0.04438086 -0.08556067 0.0128252795 -0.0054381797 -0.02334251
0.03387506 0.025980905 -0.06346531 -0.014603205 -0.009192005 -0.054581203 0.003208035 -0.0005278774
-0.0069545703 -0.093310565 0.03940507 0.009332933 0.011292999 -0.019424735 -0.009241648 0.025863169
-0.019284692 -0.009623371 0.0019814738 0.053504996 -0.055789936 0.0033252072 -0.133653 -0.09414768
0.034301132 -0.028972665 -0.0070912046 0.00317078 -0.025462164 0.010268115 -0.09407065 -0.002249219
-0.037460677 -0.014603594 0.049077924 -0.02816029 -0.09225516 -0.07018023 0.002888124 -0.033868674
-0.055249687 -0.018388955 0.020325128 -0.0965677 -0.025773993 -0.0043228506 0.020107552 -0.06641413
-0.023742987 -0.0009756084 0.04743661 -0.060375 -0.018821169 0.00033430583 -0.027292788 0.01502306
-0.10486903 0.018069062 -0.06762074 -0.02454274 0.018480137 -0.1864459 -0.019263176 -0.10489252
0.04870825 0.013142336 0.0012568654 -0.03958014 -0.0022061162 -0.0022944985 0.010954786 0.061465293
0.036652006 0.02795883 -0.0053469166 0.008494417 -0.032226346 -0.027771808 -0.051423326 -0.06828434
-0.001953716 -0.03719684 0.08346559 0.02016084 -0.07655542 0.02243196 0.009010667 -0.00082203007
-0.062969014 -0.039138146 -0.016723536 0.022072388 -0.0074111195 0.0007961163 0.04300494 -0.026635436

conv_block4.1.running_mean f4 [128]
00000000: 19c7 d93e 81f1 173f f53b af3e 75bb 61bf
00000010: 0dbe 013f f6ab 1d3f deb7 bb3e 5f86 1b3f
00000020: 40b9 db3e dcff 1d3f 94f3 063f 360b 243f
00000030: b929 1c3f 6c26 fb3e e1a3 cb3e 0b26 2cbf
00000040: e28a 81bf d79b 203f b5cc 123f 3b9c a8be
00000050: 760d 833e b371 523f aa78 1ebf 65b5 2e3f
00000060: 2193 03bf 214d 6f3f af37 f23e 98db 4f3f
00000070: ec02 2d3e 5be9 603f b09c 343f 1a24 e23e
00000080: 8e38 85bf fe7c b53e 0461 073b 02a8 9d3e
00000090: c06e 053f bfcb fc3e 57bf 1cbf 6c88 173f
000000a0: fba3 11bd d86a 1b3f 6828 693c 5025 153f
000000b0: 4874 23bf ee4f 243f c94b a2bf 8400 9cbf
000000c0: 903d 013f 92fb 273f 88ff 59bf 287e 55bf
000000d0: 242d ac3e 8d4e fa3e d680 3a3f cbde e63e
000000e0: 142e d5be 0270 3b3f a62a 3bbf a2b1 133f
000000f0: 4ab0 d43d 5abb 193f d048 67be c469 8ebf
00000100: 9426 5dbe e86e 91bf 362e 063f 6277 46bf
00000110: 6b8f 0a3f bbcd 47bf 899e 0b3f a5b4 503f
00000120: 4cf6 bfbe b03e 3e3f 6894 853f 347f 5cbe
00000130: 951a 243e 12e0 2fbf dcf4 3e3f 8376 11bf
00000140: 1469 033f f24d f83e 7411 5bbf f395 babd
00000150: 03d1 85bf 8043 163f c17a e43e 00f2 0d3f
00000160: 4f22 17bf f04d db3e 97b7 4bbe 915c 003f
00000170: 444a 83be ae7b 453f a28d 0c3f 13f0 0e3f
00000180: d753 b73e 5169 44bf 1f66 69bf bc26 33be
00000190: 5756 313f 257d 72bf 4ed9 0c3f b151 8b3d
000001a0: ad16 f63e 5d82 f83e 5217 d0bf 97d1 3a3f
000001b0: a958 233f 53e5 013f c481 93be 4b6c 20be
000001c0: 4aef c53e 0e28 193f 8019 c0bf 9063 91bf
000001d0: 01af bf3e ec4a bb3e 4cdc 053f 0e3d 86bf
000001e0: 7c0a b23e d4d6 ffbe 6aaa 0c3f d873 883e
000001f0: 3c51 76bf bba6 18bf 26e9 283f a09f a03e
0.42534712 0.5935288 0.3422543 -0.8817666 0.5068062 0.61590517 0.36663717 0.6075191
0.42914772 0.61718535 0.5271542 0.64079607 0.61001164 0.4905275 0.39773467 -0.6724555
-1.0120509 0.6273779 0.5734361 -0.32931694 0.25596207 0.8220474 -0.6190287 0.68245536
-0.51396376 0.93477064 0.47308108 0.8119445 0.16895646 0.8785607 0.70551586 0.44168168
-1.0407884 0.35446924 0.002065719 0.30792242 0.52122116 0.49374196 -0.6122946 0.5919254
-0.035556775 0.60709906 0.014230825 0.5826006 -0.63849306 0.64184463 -1.2679378 -1.2187657
0.5048456 0.6561824 -0.85155535 -0.83395624 0.3362819 0.48888054 0.7285284 0.45091853
-0.41636717 0.73217785 -0.7311195 0.5769292 0.10385187 0.600515 -0.2258637 -1.1126027
-0.21596748 -1.1361971 0.5241426 -0.77525914 0.5412509 -0.78048295 0.5453878 0.8152564
-0.37492597 0.74314404 1.0435915 -0.21532899 0.16025765 -0.6870128 0.74592376 -0.5682146
0.5133221 0.48496968 -0.85573506 -0.09110632 -1.045441 0.58696747 0.44624904 0.5544739
-0.59036726 0.428329 -0.19894253 0.50141245 -0.25642598 0.77141845 0.54903615 0.55835074
0.35806152 -0.767232 -0.9117145 -0.17495245 0.6927237 -0.94722205 0.5501908 0.06802691
0.48064175 0.4853696 -1.6257117 0.7297606 0.6380716 0.50740546 -0.2880994 -0.1566631
0.38659126 0.59826744 -1.5007782 -1.1358509 0.37438205 0.36580598 0.5228927 -1.0487382
0.34773624 -0.49968588 0.5494753 0.26650882 -0.96217704 -0.5962941 0.65980756 0.31371784

conv_block4.1.running_var f4 [128]
00000000: a64a 243f d181 483f ebe9 463f 651c de3e
00000010: 1868 583f b463 613f 98a9 4d3f 0b1b 4e3f
00000020: f033 3f3f 9cca 643f b6c8 413f 0bc4 363f
00000030: 6959 4a3f a9c2 483f 13be 663f 8311 703f
00000040: 369f 303f dcb5 3c3f 20ab 403f a6f1 c93e
00000050: 4fe0 523f b033 3f3f fa56 273f d8f3 793f
00000060: 9a8a e23e 9e40 653f 485f 493f a36f 5a3f
00000070: 5fd1 393f 2a5c 3f3f 902a 5c3f 4ff5 243f
00000080: 6eef 553f 4be4 223f 84d8 6b3f 9997 473f
00000090: d372 683f 1b53 293f 237d fe3e c15c 403f
000000a0: 06f5 183f b6e5 513f 960b 923f b822 453f
000000b0: 57bb 303f a72d 3e3f 011e 813f 3a5e 6e3f
000000c0: b8da 413f d9b6 3d3f fbb2 543f b62a 7f3f
000000d0: ff6f 653f bc45 4b3f db7f 5c3f 782f 4b3f
000000e0: ede3 303f 6497 3a3f a44a 5a3f cb22 663f
000000f0: 5ba6 853f 9157 413f a9a8 273f 97d3 323f
00000100: 3b4d 183f 4dfc 243f 789d 4d3f 1629 563f
00000110: 418f 583f ff7d 163f b1cc 503f 487c 263f
00000120: 986d ee3e d322 723f d016 4e3f f3e1 253f
00000130: 9c78 423f ec59 543f 4d6f 6a3f a835 0e3f
00000140: 5403 4d3f 06ea 423f f061 3c3f a142 fe3e
00000150: ff89 343f c56a 4c3f 0df7 543f c4d2 413f
00000160: 0e91 ef3e 3d23 3c3f 0bf3 043f 3687 733f
00000170: 03e3 133f 92ca 643f 4f11 4e3f 42a2 4d3f
00000180: 7a4a 5e3f 27bc 4f3f bf2c 353f 0f06 3b3f
00000190: c8a8 403f 0dea 7e3f 4f1f 593f ec30 763f
000001a0: 07f2 363f 81c8 363f c4b1 7e3f 6b81 483f
000001b0: 5514 453f 782e 553f 2554 0f3f 0d1f 1d3f
000001c0: aeee 4b3f 7147 3a3f 2ea0 643f 9aec 7a3f
000001d0: f2ae 5b3f 3e86 4c3f 2b6d 533f 8f6b 6f3f
000001e0: ea0f 323f 5a95 193f 47f6 4d3f 674d 3d3f
000001f0: 319a 5c3f 0860 6a3f 1c7f 403f afde 413f
0.64176404 0.78323084 0.7770068 0.43381038 0.84533834 0.8804276 0.80336905 0.80510014
0.74688625 0.8937166 0.75696886 0.7139289 0.7904268 0.7842203 0.9013378 0.9377672
0.68992937 0.73714995 0.75261116 0.39442176 0.8237352 0.74688244 0.6536709 0.976377
0.4424637 0.89551723 0.7866101 0.85326594 0.725851 0.74750006 0.86002445 0.6443681
0.83568466 0.636296 0.9212725 0.77965695 0.9080021 0.66142434 0.49704847 0.7514153
0.59748876 0.81991136 1.1409786 0.770061 0.6903586 0.7428841 1.0087281 0.9311253
0.75724363 0.7410713 0.830856 0.99674547 0.8962402 0.7940328 0.8613259 0.79369307
0.6909779 0.72887254 0.8527014 0.8989684 1.0441393 0.7552424 0.6549173 0.6985411
0.59492844 0.6444748 0.80318403 0.8365644 0.8459359 0.58786005 0.81562334 0.6503339
0.46567988 0.9458439 0.8050356 0.64797896 0.75965285 0.8294971 0.9157608 0.5555062
0.80083203 0.7613834 0.7358694 0.4966021 0.70523065 0.7985042 0.8318947 0.7571223
0.46790355 0.7349127 0.51933354 0.9512819 0.5776827 0.893716 0.8049516 0.8032571
0.8683239 0.8114647 0.707714 0.7305612 0.7525754 0.99575883 0.848134 0.961684
0.71463054 0.71399695 0.9949 0.78322476 0.7698415 0.8327403 0.5598777 0.61375505
0.7966107 0.7276526 0.89306915 0.98017275 0.8581382 0.7989234 0.8258845 0.93523496
0.6955553 0.5999352 0.80453914 0.7394623 0.8617278 0.9155278 0.75193954 0.75730413
